data_20sec_label01/models/best_bilstm.pt (torch, 148037 bytes, 9 tensors)

lstm.weight_ih_l0 f4 [256, 4]
0	0xbd2a6bac	-0.04160659
1	0xbdedb46d	-0.11606679
2	0xbc3309f4	-0.010927666
3	0xbe31e2ed	-0.17371722
4	0x3c460956	0.012087187
5	0xbcf736bc	-0.030177467
6	0x3cfee743	0.031116134
7	0xbeb14ce5	-0.34628978
8	0xbe1d5053	-0.15362673
9	0x3d977be2	0.07396676
10	0xbe337602	-0.17525485
11	0x3c652dd4	0.013987977
12	0xbe941af1	-0.28926805
13	0xbcba0282	-0.022706274
14	0xbe4ee52e	-0.20204613
15	0xbe868f14	-0.26281035
16	0xbe3aa27a	-0.18226042
17	0xbd7bcc14	-0.06147392
18	0x3d46886f	0.048469957
19	0xbdc21743	-0.09477093
20	0x3c4412c2	0.011967363
21	0x3d8d6203	0.0690346
22	0x3c98776c	0.018611632
23	0xbe9b603f	-0.30346867
24	0x3d40f610	0.047109663
25	0x3d071a49	0.03298405
26	0xbb8687b2	-0.0041055316
27	0xbde332d3	-0.11093678
28	0xbd593b20	-0.0530349
29	0xbdc0e409	-0.09418494
30	0xbd99adc7	-0.075038485
31	0xbcfe8ff0	-0.031074494
32	0xbe8bf58a	-0.2733577
33	0xbd641f59	-0.055693958
34	0xbc66ce7d	-0.014087317
35	0xbe8f7d87	-0.28025457
36	0xbcd4a6f8	-0.025958523
37	0xbe0d0316	-0.13770708
38	0xbe290eae	-0.16509506
39	0xbe833946	-0.25629634
40	0xbe92adb1	-0.2864814
41	0xbe0ebd94	-0.13939506
42	0x3c31ea91	0.010859148
43	0xbd8c97db	-0.06864902
44	0xbe8c9b52	-0.2746225
45	0xbe289bdf	-0.1646571
46	0x3d8c869a	0.06861611
47	0xbc67436d	-0.014115197
48	0xbdd04a81	-0.101704605
49	0xbb139fcb	-0.0022525664
50	0xbc4fd779	-0.01268565
51	0xbe091440	-0.13386631
52	0x3bf8a0e8	0.007587541
53	0x3dc2e1b0	0.09515703
54	0xbe3b44b1	-0.18287922
55	0xbe433b4f	-0.19065593
56	0xbe7fedf3	-0.24993114
57	0xbe2cd38a	-0.16877571
58	0x3d33ae54	0.043867424
59	0xbe487b29	-0.19578232
60	0xbda4ce37	-0.08047145
61	0x3cb1b1cc	0.021691225
62	0x3dd8c4ad	0.10584388
63	0xbe31a231	-0.17347027
64	0xbdb11fa8	-0.08648616
65	0xbe1a8438	-0.150895
66	0xbcae2ad7	-0.021260662
67	0xbe26e611	-0.16298701
68	0x3d1eb893	0.038750242
69	0x3d8f9271	0.07010353
70	0x3da5510f	0.08072101
71	0xbe83d950	-0.25751734
72	0xbcd762fa	-0.026292313
73	0xbe239a4c	-0.15976828
74	0x3da12f23	0.07870319
75	0xbe69bcf3	-0.22825985
76	0x3e0320f4	0.1280554
77	0x3e288233	0.16455917
78	0x3e10c3a1	0.14137127
79	0xbd748eb3	-0.0597064
80	0xbc4968cc	-0.012293052
81	0xbea0bd9f	-0.3139467
82	0xbc9d579d	-0.019206816
83	0x3e1e664f	0.15468715
84	0xbe935b4b	-0.28780589
85	0xbe46a2a3	-0.19397978
86	0xbd4c7cab	-0.04992358
87	0xbe07e93e	-0.13272569
88	0xbea8a61e	-0.32939237
89	0x3d76d6ed	0.060263563
90	0xbe47edf2	-0.19524363
91	0xbe33ac79	-0.17546262
92	0x3d3bbbbe	0.04583334
93	0xbd9a67f1	-0.075393565
94	0xbe037eb3	-0.128413
95	0x3be8e23e	0.0071070483
96	0x3e6acd2b	0.22929828
97	0xbe2e5d98	-0.1702789
98	0x3d3db62b	0.046316307
99	0xbd1ea15f	-0.038728114
100	0xbd48ec36	-0.049053393
101	0xbe821f58	-0.25414538
102	0xbce7c533	-0.028292274
103	0x3d1baed4	0.038008526
104	0xbd8c2341	-0.06842662
105	0xbd024f4e	-0.031813912
106	0xbd184203	-0.03717233
107	0xbdde0d73	-0.10842409
108	0xbed4be1a	-0.41551286
109	0x3df90e45	0.12160925
110	0xbe6454fd	-0.22298045
111	0x3dcde4b1	0.10053385
112	0x3e6275fb	0.22115318
113	0xbda73596	-0.081645176
114	0x3e5ef33c	0.21772474
115	0xbe1c40a2	-0.1525903
116	0xbdc02415	-0.09381882
117	0xbcd0c062	-0.02548236
118	0x3d99eaeb	0.0751551
119	0xbeb9660c	-0.36210668
120	0xbe27a495	-0.16371377
121	0xbe2422ac	-0.16028851
122	0x3bf43314	0.007452378
123	0xbeaf396a	-0.3422349
124	0xbb48f5c3	-0.0030664064
125	0xbe0604e4	-0.13087803
126	0x3dfcc4b2	0.12342204
127	0xbe8e0593	-0.27738628
128	0xbcfdeb6c	-0.030996047
129	0xbca3bf02	-0.01998854
130	0x3c885435	0.016641716
131	0xbe2be593	-0.16786794
132	0xbe21f88d	-0.15817471
133	0xbe712fa7	-0.23553334
134	0xbdc04e26	-0.09389906
135	0xbe85eae8	-0.26155782
136	0xbdef9273	-0.11697855
137	0xbc3ff982	-0.011717202
138	0x3d78a4a4	0.06070389
139	0xbdf586c6	-0.119885966
140	0xbe32e6da	-0.17470875
141	0x3de8c879	0.11366362
142	0xbe08f6c3	-0.13375382
143	0xbe464a5e	-0.19364306
144	0xbec3f5ba	-0.38273412
145	0xbdeaf3a8	-0.11472255
146	0xbdbd9743	-0.092573665
147	0xbe4c75e7	-0.19966851
148	0x3e84dfb3	0.2595192
149	0x3e12a7c2	0.14321807
150	0x3e70f718	0.23531759
151	0xbd224ef8	-0.03962609
152	0xbe80e612	-0.2517553
153	0x3da22341	0.079168804
154	0x3dd22b12	0.10262121
155	0xbdc21662	-0.094769254
156	0xbe8a04ec	-0.2695688
157	0xbe08b0d0	-0.13348699
158	0xbe5e00b5	-0.21679957
159	0xbe6694be	-0.22517678
160	0x3c9c8070	0.019104213
161	0xbe33e3f9	-0.17567433
162	0xbd8285ff	-0.06373214
163	0xbea9ec06	-0.33187884
164	0xbecbc512	-0.3979879
165	0xbe03c936	-0.12869725
166	0x3dbaf704	0.09129146
167	0xbcd2aca9	-0.025717096
168	0x3e6a665d	0.22890611
169	0xbddbfefd	-0.107419945
170	0x3d7bc220	0.06146443
171	0xbdc80f02	-0.097684875
172	0x3d87a79b	0.06623765
173	0xbd9e5750	-0.07731497
174	0x3da99497	0.082802944
175	0xbe0949e9	-0.134071
176	0xbeab38f6	-0.33441895
177	0xbe75842b	-0.239762
178	0xbbf0b5b9	-0.007345882
179	0xbe7c0038	-0.24609458
180	0xbdbe8865	-0.09303359
181	0xbdcf16bd	-0.10111759
182	0xbd729735	-0.059226234
183	0xbdec853d	-0.11548851
184	0x3d358611	0.04431731
185	0x3e54eb48	0.20792878
186	0xbdd791f3	-0.105258845
187	0xbde8a09d	-0.113587596
188	0xbe821139	-0.25403765
189	0xbcc32662	-0.023822013
190	0x3d8232b5	0.06357328
191	0xbe60ec53	-0.2196515
192	0x3cf75889	0.030193584
193	0xbe51b616	-0.20479617
194	0x3cd94417	0.026521726
195	0xbe23baa3	-0.15989165
196	0xbd43f356	-0.047839485
197	0xbde83caa	-0.11339696
198	0x3c8ccb52	0.017186794
199	0xbe83eb79	-0.2576559
200	0xbe5d2393	-0.21595602
201	0xbcee8e0d	-0.02912047
202	0x3d8cb3d3	0.06870236
203	0x3db7c3f4	0.08972922
204	0xbe311155	-0.17291768
205	0xbdd95196	-0.106112644
206	0xbda53d15	-0.08068291
207	0xbc81e81e	-0.015857752
208	0xbe3737f1	-0.17892434
209	0xbdd1fe51	-0.10253585
210	0x3c6f153f	0.014592468
211	0xbe2045c0	-0.15651608
212	0xbe8b78de	-0.27240652
213	0xbe319261	-0.17340995
214	0x3d99606f	0.074890964
215	0xbeb8c484	-0.3608743
216	0x3e8f739b	0.28017887
217	0x3d78a13c	0.06070064
218	0x3d42bdc0	0.04754424
219	0x3d77be5d	0.06048428
220	0xbd4b388a	-0.049614467
221	0xbe526737	-0.20547186
222	0xbea2a27d	-0.31764594
223	0xbe735310	-0.23762155
224	0x3db89f0e	0.09014712
225	0xbe149503	-0.14509968
226	0xbda4681c	-0.0802767
227	0xbe45184c	-0.1924755
228	0xbed70014	-0.41992247
229	0x3db810c9	0.089875765
230	0x3d86ba0c	0.065784544
231	0x3d93dc82	0.07219793
232	0x3e1f3049	0.15545763
233	0x3e53afe9	0.20672573
234	0x3e0eaee0	0.13933897
235	0xbeb07276	-0.34462327
236	0x3ddaf4ef	0.106912486
237	0xbdbff560	-0.093729734
238	0x3c315902	0.010824444
239	0xbe3879f7	-0.18015276
240	0xbe2cffc7	-0.16894446
241	0xbe6dbdcf	-0.23216937
242	0x3d094421	0.03351224
243	0xbc77d256	-0.015125832
244	0x3ed1e3ca	0.40994102
245	0xbe4f2d02	-0.20232013
246	0x3dce9c11	0.10088361
247	0xbe17b378	-0.14814556
248	0xbe1c3c52	-0.15257385
249	0xbe8f93ad	-0.28042355
250	0x3d8d138b	0.06888493
251	0xbdebe5c6	-0.11518435
252	0xbeaffe11	-0.34373525
253	0x3d1b0a15	0.03785141
254	0xbc2775c6	-0.0102209505
255	0xbdbcbddd	-0.09215901

lstm.weight_hh_l0 f4 [256, 64]
0	0x3db23a14	0.08702484
1	0x3da49e03	0.08037951
2	0xbaa3ef19	-0.001250717
3	0x3d3818db	0.04494558
4	0x3e08e1ad	0.13367338
5	0x3c8c7fce	0.017150786
6	0x3d622f15	0.055220682
7	0xbd896d1f	-0.06710266
8	0x3e13a054	0.14416629
9	0x3dfd0335	0.12354127
10	0xbe16cc42	-0.14726356
11	0xbcc5e4f4	-0.024157025
12	0xbd5af50f	-0.053456362
13	0xbd9406df	-0.07227873
14	0xbe06f56f	-0.13179563
15	0xbd48bd50	-0.049008667
16	0x3c4ff8fa	0.012693638
17	0x3da01c7f	0.07817935
18	0x3d543573	0.051808786
19	0x3d67a02e	0.056549244
20	0xbdc9ff16	-0.09863107
21	0xbdef4078	-0.11682218
22	0x3db4475f	0.088026755
23	0x3d148c6f	0.03626674
24	0x3cb661ab	0.022263369
25	0x3d4c5f66	0.049895667
26	0xbdcdb79e	-0.10044788
27	0xbdacc9d4	-0.08436933
28	0xbd8bf721	-0.068342455
29	0xbbedda47	-0.0072586867
30	0x3d88c558	0.06678265
31	0x3d5b610c	0.053559348
32	0x3d981de9	0.0742758
33	0x3dbb4d89	0.09145648
34	0x3d82d617	0.06388491
35	0x3d762bfe	0.060100548
36	0x3df8388e	0.12120162
37	0x3dfd3d8f	0.12365257
38	0xbde9de23	-0.11419322
39	0xbe18f259	-0.14936198
40	0x3d00b885	0.03142597
41	0xbe15ee61	-0.14641716
42	0xbb89f937	-0.004210617
43	0x3d4af63f	0.049551245
44	0xbd070cf2	-0.03297133
45	0xbca66d73	-0.020315861
46	0xbe1592dd	-0.14606805
47	0xbdb8d04f	-0.09024107
48	0xbe16f35f	-0.14741276
49	0xbc1ba1d8	-0.009499036
50	0x3db14db2	0.08657397
51	0xbd369049	-0.044571195
52	0x3d9a0bcb	0.075217806
53	0xbdf011e0	-0.117221594
54	0xbc2ea0f7	-0.010658494
55	0x3da146c4	0.078748256
56	0x3d452620	0.048132062
57	0x3de3b5d1	0.11118663
58	0x3d82a98b	0.06379994
59	0x3d73f8fb	0.05956362
60	0xbdc0e4d8	-0.094186485
61	0xbdbf82c2	-0.09351112
62	0xbdba59f6	-0.0909919
63	0x3d9acddb	0.07558795
64	0x3dcb4a8e	0.099263296
65	0xbc576529	-0.013146677
66	0x3dcc0372	0.09961595
67	0xbd9b884f	-0.07594358
68	0x3d59bdd9	0.05315957
69	0x3d28c2de	0.041201465
70	0x3d36274b	0.044471066
71	0x3d7555f5	0.05989643
72	0x3d68b643	0.056814443
73	0x3d4041a8	0.046937615
74	0xbd58437c	-0.052798733
75	0x3d6de742	0.058081873
76	0xbd3d3871	-0.046196405
77	0xbdb45d74	-0.08806887
78	0x3db55c91	0.08855546
79	0xbd813c3f	-0.06310319
80	0xbda4f4cb	-0.08054503
81	0x3dafc90c	0.085832685
82	0x3d17979a	0.037009813
83	0x3e21bf2c	0.15795583
84	0x3db4bca4	0.08825043
85	0xbceade45	-0.02867044
86	0xbd09fe23	-0.03368963
87	0xbc30abf9	-0.010783189
88	0x3dcb67dc	0.09931919
89	0x3d929a51	0.0715834
90	0x3d7ed2b8	0.062212676
91	0xbbb03a63	-0.005378054
92	0xbcce333f	-0.02517092
93	0x3de27e20	0.11059213
94	0x3d8cb551	0.06870521
95	0x3d889423	0.0666888
96	0x3e01de05	0.1268235
97	0x3dcf188f	0.10112106
98	0xbdaa72e3	-0.08322694
99	0x3d89f4c5	0.06736139
100	0xbda63e75	-0.081173815
101	0x3d2b921a	0.04188738
102	0xbdd747b9	-0.10511727
103	0x3dcd02f9	0.100103326
104	0xbce477ae	-0.027889099
105	0xbc913527	-0.01772554
106	0xbdf1282c	-0.1177524
107	0x3de39b4f	0.11113607
108	0x3d2c5c5c	0.04208027
109	0x3dd00c1a	0.10158558
110	0x3d863f55	0.065550484
111	0x3d3ce748	0.046119004
112	0x3dbbd3c6	0.09171252
113	0x3d832fc7	0.06405597
114	0x3d142ab5	0.03617354
115	0x3aa4ef4d	0.0012583524
116	0x3db0216d	0.086001255
117	0x3dc651e5	0.09683589
118	0xbaa5c504	-0.0012647216
119	0x3d3d78b6	0.046257697
120	0xbd0adf2a	-0.033904232
121	0xbd8b3da8	-0.06798869
122	0xbdc0b4d1	-0.09409488
123	0xbd703377	-0.05864283
124	0x3cc2ffe2	0.023803655
125	0xbcd76ddf	-0.026297508
126	0x3ddc47e2	0.10755898
127	0x3dd490be	0.1037917
128	0x3d1468a4	0.036232606
129	0x3bbacaec	0.0057004597
130	0x3d9bb3d9	0.076026626
131	0xbe39ec94	-0.18156654
132	0xbad5043b	-0.0016251871
133	0xbd3267cb	-0.043556016
134	0xbdeda664	-0.11604002
135	0xbe134b62	-0.14384225
136	0x3da8ed8f	0.08248436
137	0x3d655a2d	0.0559942
138	0xbddc6676	-0.107617304
139	0x3d35b173	0.044358682
140	0x3d83c72f	0.06434476
141	0xbdca4147	-0.09875732
142	0x3d960fd4	0.07327238
143	0xbd3aa7ea	-0.04557029
144	0xbc0561d0	-0.008140996
145	0xbe1ae408	-0.1512605
146	0x3dd27130	0.10275495
147	0xbc1b2a38	-0.009470515
148	0xbe17415c	-0.14771026
149	0xbdf6a6c0	-0.12043524
150	0xbb53d535	-0.0032323126
151	0x3de0688d	0.109574415
152	0x3cbd48bd	0.023105973
153	0xbd8055d2	-0.06266369
154	0x3cbb9de3	0.022902435
155	0x3d8d63ee	0.06903826
156	0x3e152348	0.1456424
157	0x3debc195	0.11511532
158	0xbdb14442	-0.08655597
159	0x3c043582	0.008069398
160	0xbd355b80	-0.044276714
161	0x3c31d1c1	0.010853232
162	0x3d2bf7c7	0.041984346
163	0xbdb545cb	-0.088512026
164	0xbcd051da	-0.025429655
165	0xbd27ba91	-0.040949408
166	0xbbcca491	-0.006245204
167	0xbdab6726	-0.083692834
168	0x3c6c7fbb	0.01443475
169	0xbd6eeee5	-0.058333296
170	0xbcf77d65	-0.03021116
171	0x3d365fb0	0.04452485
172	0xbe048f93	-0.12945394
173	0x3de29dbf	0.11065244
174	0xbdb8db33	-0.09026184
175	0xbd62c148	-0.05536011
176	0x3d8825ec	0.06647858
177	0x3d77b943	0.060479414
178	0xbd347257	-0.044054355
179	0xbd83fb90	-0.06444466
180	0x3dde64ed	0.10859094
181	0x3d9efe60	0.07763362
182	0xbd9cb3a6	-0.07651453
183	0xbde5922e	-0.11209522
184	0x3d4d7e4f	0.050169285
185	0x3dd7c281	0.105351456
186	0x3ccb5c43	0.024824267
187	0xbd821ede	-0.06353544
188	0xbda1529f	-0.07877087
189	0xbcb01e70	-0.021498889
190	0xbd29e0df	-0.04147422
191	0xbd58b3bc	-0.052905783
192	0xbe012a4a	-0.12613788
193	0x3bcebb13	0.006308922
194	0xbcfb10a2	-0.03064758
195	0x3d245ec1	0.040129427
196	0xbc79a665	-0.015237425
197	0x3db973d4	0.090552956
198	0x3db98e79	0.09060378
199	0xbd4e29a9	-0.0503327
200	0x3d8b678e	0.06806861
201	0x3d08bc7e	0.033382885
202	0x3d219368	0.03944722
203	0x3b26f557	0.0025475824
204	0xbc06809b	-0.008209373
205	0x3d631deb	0.055448454
206	0x3dad50ff	0.084627144
207	0x3d482fca	0.0488737
208	0x3d3ffc07	0.04687121
209	0xbc1ece64	-0.009692762
210	0xbd018d18	-0.031628698
211	0x3e36c36d	0.17847987
212	0xbd0de652	-0.03464348
213	0x3bf36781	0.00742811
214	0x3d4b661b	0.049657922
215	0x3e1c8011	0.15283228
216	0xbdf0e91a	-0.117632106
217	0x3b9a87a4	0.0047158767
218	0x3d3da836	0.046302997
219	0x3d905da8	0.070491135
220	0xbddca367	-0.10773354
221	0x3db818ee	0.0898913
222	0x3d655107	0.055985477
223	0xbd488598	-0.04895553
224	0xb9c5bc3e	-0.0003771502
225	0x3d9e864a	0.07740457
226	0xbcd152a6	-0.025552105
227	0xbe2278e3	-0.15866427
228	0xbcf53578	-0.029932722
229	0x3e4cd221	0.20002033
230	0xbd24f9fb	-0.040277462
231	0xbdc81899	-0.09770317
232	0xbd951154	-0.07278696
233	0xbce02bd6	-0.027364653
234	0xbbe1c52a	-0.006889959
235	0x3e3de236	0.18543324
236	0xbdb8978d	-0.09013281
237	0x3d812446	0.06305747
238	0xbd916b33	-0.07100525
239	0xbd58846f	-0.052860674
240	0xbd11d0b4	-0.035599425
241	0xbc8f0735	-0.017459491
242	0x3dc49a48	0.09599739
243	0x3e5562ca	0.20838466
244	0x3e16bd47	0.14720641
245	0x3d071c85	0.032986183
246	0x3e3eb44e	0.18623468
247	0xbdb6728f	-0.08908569
248	0xbd98f180	-0.074679375
249	0xbcb0ab75	-0.021566132
250	0x3d41873e	0.047248118
251	0x3da356ee	0.07975565
252	0x3d5367a6	0.05161252
253	0x3e38e4b2	0.1805599
254	0x3cb95740	0.022624612
255	0x3d5cd3de	0.05391299

lstm.bias_ih_l0 f4 [256]
0	0xbbfae3be	-0.0076565435
1	0x3de14284	0.10999015
2	0x3da33505	0.07969097
3	0xbc81473a	-0.015781034
4	0xbd475940	-0.0486691
5	0x3e29f132	0.16595915
6	0x3e182c00	0.14860535
7	0x3df2aacb	0.118489824
8	0xbcde207b	-0.027115097
9	0xbd688182	-0.056764133
10	0x3df1a689	0.11799342
11	0x3e53c540	0.20680714
12	0xbd367a33	-0.044550132
13	0xbd9487d7	-0.07252472
14	0x3d9cd6e4	0.07658175
15	0xbd78871c	-0.060675725
16	0x3dd5232f	0.10407101
17	0x3d90446b	0.070443
18	0x3df614dc	0.12015697
19	0x3d79854b	0.060918134
20	0x3cd8bc7b	0.026457062
21	0xbda27120	-0.07931733
22	0xbdcfce60	-0.10146785
23	0x3b9badef	0.004750959
24	0x3e11bf4e	0.14233133
25	0xbd911cd1	-0.070855744
26	0xbde16b7d	-0.1100683
27	0xbd21a533	-0.039464187
28	0x3d5296e1	0.05141342
29	0xbbbd3030	-0.0057735667
30	0x3d9d35d7	0.07676285
31	0x3e1f6a8d	0.1556799
32	0x3cb02e96	0.021506589
33	0xbd4aacb6	-0.049481116
34	0xbd5e375b	-0.05425201
35	0x3d5a8814	0.05335243
36	0x3cd72c36	0.026266199
37	0x3bb2b2ab	0.005453428
38	0x3e078444	0.13234049
39	0x3d611001	0.054946903
40	0x3dcc7006	0.09982304
41	0x3dbd0336	0.09229128
42	0xbb0106bc	-0.0019687852
43	0xbc8c9f96	-0.01716594
44	0x3ddf841c	0.1091387
45	0x3e15da43	0.14634041
46	0xbde1d229	-0.11026413
47	0x3d9cc730	0.076551795
48	0x3dc876d6	0.09788291
49	0x3d878d58	0.06618756
50	0x3a3742d4	0.0006990854
51	0xbdca9db9	-0.098933645
52	0x3cee0700	0.029056072
53	0x3dc883b9	0.09790749
54	0x3cdf51e4	0.027260728
55	0xbd68b07b	-0.05680893
56	0x3d9ba09b	0.075989924
57	0x3de184d6	0.110116646
58	0x3c9ea2bc	0.019364707
59	0xbd6d6fcc	-0.057967946
60	0x3dd029f0	0.10164249
61	0x3df8580a	0.12126167
62	0x3cdb8ce9	0.02680059
63	0x3dca9ffe	0.09893797
64	0xbdbbd948	-0.091723025
65	0xbdb6133a	-0.08890386
66	0x3e02eb29	0.12785019
67	0x3e029a32	0.12754133
68	0x3dcbbc7e	0.099480614
69	0x3e19e4a9	0.15028633
70	0x3e2254c2	0.15852645
71	0xbdabaa8c	-0.083821386
72	0xbd8d1437	-0.06888621
73	0xbccaa86f	-0.024738519
74	0x3b279571	0.0025571252
75	0x3cdbd0c1	0.02683294
76	0xbd240a00	-0.0400486
77	0x3d589235	0.05287381
78	0xbc8de681	-0.017321827
79	0xbc443b77	-0.011977068
80	0xbdee906a	-0.116486385
81	0x3c82f344	0.015985139
82	0x3d175376	0.03694483
83	0xbd4f2a0d	-0.050577212
84	0x3dcd0585	0.100108184
85	0xbd111086	-0.03541615
86	0xbdc78035	-0.097412504
87	0xbc2312f5	-0.00995325
88	0xbdde724c	-0.10861644
89	0x3c4f8024	0.012664828
90	0x3df7f39d	0.121070124
91	0xbd8628ee	-0.065507755
92	0x3db53ca2	0.088494554
93	0xbcdc296f	-0.026875226
94	0xbce5a912	-0.02803472
95	0x3d3ee57e	0.04660558
96	0x3d945b9a	0.07244034
97	0x3d4d33f0	0.05009836
98	0x3ddc4628	0.10755569
99	0x3ddc5081	0.107575424
100	0x3c8dc24c	0.017304562
101	0x3db54cf0	0.08852565
102	0x3dd92dc4	0.10604432
103	0xbd43092b	-0.047616165
104	0xbcbba499	-0.022905635
105	0x3df5c699	0.1200077
106	0xbd4b2465	-0.049595255
107	0x3c0bb544	0.008527104
108	0x3db7197c	0.08940408
109	0xbd7df745	-0.062003393
110	0xbbeb650a	-0.0071836757
111	0xbdc6a3b9	-0.09699196
112	0x3dccb240	0.09994936
113	0x3c482307	0.012215382
114	0x3ba63ea8	0.005073387
115	0x3d42be79	0.04754493
116	0x3dc92fd2	0.09823574
117	0xbc8f9f69	-0.017532067
118	0x3d92be11	0.071651585
119	0x3dce3708	0.1006909
120	0xbdf55e6d	-0.11980901
121	0x3d04d166	0.03242626
122	0x3d92649b	0.07148095
123	0x3cb3fa81	0.021970036
124	0xbd986d0c	-0.07442674
125	0xbc7400d1	-0.014892773
126	0xbda7e1ff	-0.08197402
127	0x3c306e88	0.01076854
128	0xbe059b1e	-0.13047454
129	0xbc017e99	-0.007903718
130	0xbd2d9575	-0.04237886
131	0xbdd37b01	-0.103261955
132	0x3dbf2642	0.09333469
133	0xbc323b08	-0.010878332
134	0x3c0ddd72	0.008658754
135	0xbe066dc0	-0.13127804
136	0x3cb1b037	0.021690471
137	0x3dde86b1	0.10865534
138	0xbd9ed75c	-0.0775592
139	0x3dca43b9	0.09876198
140	0xbdee4bec	-0.11635575
141	0xbdb4c264	-0.088261396
142	0xbc8badbc	-0.017050616
143	0xbdcff90a	-0.10154922
144	0x3e01dcfb	0.12681954
145	0xbded373e	-0.11582802
146	0x3da5834d	0.08081684
147	0x3c29399e	0.010328678
148	0x3d1b16e2	0.03786362
149	0xbdfeccb9	-0.124413915
150	0x3da41bdc	0.08013126
151	0x3de7b2f1	0.11313427
152	0x3cd7db1f	0.026349602
153	0x3db0fde0	0.08642173
154	0x3d855ab7	0.06511443
155	0x3db79e09	0.0896569
156	0x3cac7318	0.021050975
157	0x3bc4c833	0.006005311
158	0x3dd48dab	0.103785835
159	0xbd2d969d	-0.042379964
160	0xbd12aeb4	-0.03581114
161	0x3db43f17	0.08801096
162	0x3d9b0df5	0.075710215
163	0xbc096449	-0.008385726
164	0x3e075b7a	0.1321849
165	0x3dd90a34	0.10597649
166	0x3d5ae4cd	0.053440858
167	0xbda9077b	-0.0825338
168	0x3dafbd5a	0.08581038
169	0xbd937458	-0.07199925
170	0xbdf51ac7	-0.11967998
171	0x3dc76ba3	0.09737327
172	0x3c5287b8	0.012849741
173	0x3cd9674e	0.026538517
174	0xbaf018dc	-0.0018317956
175	0xbd883a94	-0.06651798
176	0x3cd6e551	0.026232393
177	0x3d33aa89	0.043863807
178	0x3d3ef35e	0.04661881
179	0xbbdf68a4	-0.006817894
180	0xbc058ff4	-0.008151997
181	0x3ddbef8d	0.1073905
182	0x3d1692f3	0.036761235
183	0xbd3de30a	-0.0463591
184	0x3da4588c	0.080247015
185	0x3d3439a6	0.04400029
186	0xbcf131f3	-0.029442763
187	0xbc382b03	-0.011240724
188	0xbc10246b	-0.008797745
189	0xbce6c077	-0.028167946
190	0xbda166ac	-0.07880911
191	0xbdc019e8	-0.09379941
192	0x3cd7ad55	0.026327768
193	0xbc87e59b	-0.016588977
194	0x3dde1e38	0.108456075
195	0x3da98cda	0.082788184
196	0x3c00b251	0.007855014
197	0x3da14cf1	0.078760035
198	0x3e727e7b	0.23681061
199	0xbdc57f8e	-0.0964347
200	0x3e2a0f82	0.16607478
201	0x3de6e364	0.1127384
202	0x3d09ee92	0.033674784
203	0x3e7bd433	0.24592666
204	0x3ce04948	0.027378693
205	0x3dc06244	0.09393743
206	0xba6e7c8a	-0.0009097537
207	0x3e1e6d72	0.15471438
208	0xbd057cd9	-0.032589767
209	0x3d7412f6	0.059588395
210	0x3cac464a	0.02102961
211	0x3d288cec	0.04115002
212	0x3e393f9e	0.18090674
213	0x3e08be64	0.13353878
214	0xbb8cfd05	-0.004302623
215	0x3caed67f	0.021342514
216	0xbd14f23a	-0.036363818
217	0xbd7e1bd1	-0.062038247
218	0xbdd43b60	-0.103628874
219	0xbc283939	-0.010267549
220	0x3e12c97d	0.14334674
221	0x3d72cea6	0.059279107
222	0x3dd2a24b	0.10284861
223	0x3dd7bf21	0.10534502
224	0x3e42cd40	0.19023609
225	0x3da6aa7f	0.08137988
226	0x3e104c1c	0.14091533
227	0xbd981ad4	-0.07426992
228	0xbcf9778c	-0.030452512
229	0x3d7dc017	0.06195077
230	0xbd97c2d3	-0.07410207
231	0x3e1113eb	0.14167754
232	0x3d841b01	0.06450463
233	0x3cd762a8	0.02629216
234	0xbd789d40	-0.06069684
235	0x3dbe4e2b	0.09292253
236	0x3e0175d2	0.12642601
237	0x3e123fe3	0.14282183
238	0x3c85a97d	0.01631617
239	0x3cb80bef	0.022466628
240	0x3d81f773	0.06346025
241	0x3e003c24	0.12522942
242	0x3c3e17b3	0.01160233
243	0x3da265cc	0.079295725
244	0xbd359bea	-0.044338144
245	0x3d1d0c77	0.038341966
246	0x3de78087	0.113038115
247	0xbd5a0517	-0.05322751
248	0x3d589600	0.052877426
249	0xbba8035e	-0.0051273545
250	0x3da6575d	0.08122132
251	0x3cc72760	0.024310768
252	0x3d714cdf	0.0589112
253	0xbd8223bc	-0.06354472
254	0x3d171bf9	0.03689191
255	0x3ce576c4	0.028010733

lstm.bias_hh_l0 f4 [256]
0	0xbdbc4721	-0.09193254
1	0x3db5bed2	0.08874287
2	0xbcdb1162	-0.026741687
3	0x3d47e80b	0.048805278
4	0x3dea5dff	0.114437096
5	0xbce0cc06	-0.027441036
6	0x3d8fe3de	0.07025884
7	0x3c4bab7e	0.012431024
8	0x3d9bd92f	0.07609784
9	0xbc0f7a5f	-0.008757203
10	0x3bc4fdd7	0.0060117054
11	0x3e7eccdd	0.24882837
12	0x3cb71f23	0.022353714
13	0xbd9729cf	-0.07381021
14	0x3cc147f1	0.023593875
15	0xbd7563bc	-0.059909567
16	0xbd123ba2	-0.0357014
17	0xbcb42e84	-0.021994837
18	0x3c7dd8d4	0.01549359
19	0x3d808bb2	0.06276645
20	0x3db84793	0.08998027
21	0x3d167a05	0.03673746
22	0xbc09003e	-0.008361874
23	0xbd6a96bd	-0.05727266
24	0xbd0bb9be	-0.034112684
25	0xbdaf4f85	-0.08560089
26	0xbd4bf088	-0.049789935
27	0xbda735a7	-0.0816453
28	0x3c7e7c3f	0.015532552
29	0x3d05be46	0.032652162
30	0xbd268725	-0.040656228
31	0x3de38a1c	0.11110327
32	0x3e5797d8	0.21054018
33	0x3cc0de59	0.023543524
34	0x3d465da6	0.048429154
35	0x3dc56097	0.09637564
36	0x3daf8154	0.08569589
37	0xbba82745	-0.0051316344
38	0x3d81deea	0.063413456
39	0xbd65c25c	-0.05609356
40	0xbd92f3e8	-0.07175428
41	0x3d379e51	0.044828717
42	0xba85920a	-0.0010190618
43	0xbc37147c	-0.011174317
44	0xbc83c889	-0.016086834
45	0x3e68959b	0.2271332
46	0x39e80913	0.0004425725
47	0x3dbc5bbb	0.09197184
48	0x3e2311e8	0.159248
49	0xbd072227	-0.032991555
50	0x3d733410	0.059375823
51	0xbdd79639	-0.105266996
52	0x3d8a8d8e	0.06765281
53	0x3bc7a909	0.0060931486
54	0x3da2e047	0.07952934
55	0xbc30915b	-0.010776843
56	0x3e05f706	0.13082513
57	0x3ddaf5e4	0.10691431
58	0xbd8f8549	-0.07007844
59	0x3c4c4234	0.012466956
60	0x3e37dbcf	0.17954944
61	0xbd72c573	-0.059270333
62	0x3de1e2a6	0.11029558
63	0xbc5e2b96	-0.013560196
64	0xbdb9c3ca	-0.09070547
65	0x3d90c4c4	0.0706878
66	0x3c2c0c6c	0.0105010085
67	0x3d7f8859	0.06238589
68	0xbd1bf50e	-0.0380755
69	0x3d9c0b50	0.07619345
70	0x3ddab52a	0.106790856
71	0xbcb3c192	-0.021942887
72	0x3de40e83	0.111355804
73	0x3b92a208	0.004474882
74	0x3d6e151e	0.058125608
75	0xbd05e19b	-0.032685857
76	0xbdc5b718	-0.09654063
77	0x3d8710b4	0.06594983
78	0x3c109995	0.008825679
79	0x3db773a4	0.089576036
80	0x3dc5def8	0.096616685
81	0x3d8fc68c	0.07020292
82	0xbdb04724	-0.08607319
83	0x3ca446a0	0.020053208
84	0x3c2ce143	0.010551753
85	0xbdc1c3c9	-0.09461171
86	0xbda66b79	-0.081259675
87	0xbdcc6c82	-0.09981634
88	0xbd8cd844	-0.06877187
89	0x3d977387	0.07395082
90	0x3d8603fb	0.06543728
91	0xbccc72ca	-0.02495708
92	0xbd57ddfd	-0.05270194
93	0xbd8b0cdc	-0.06789562
94	0xbd5f7545	-0.054555196
95	0xbc771cca	-0.015082547
96	0x3e35b663	0.17745356
97	0xbd82ba96	-0.06383245
98	0x3de2f7d8	0.11082429
99	0x3dc8c0ed	0.09802423
100	0x3e147127	0.14496289
101	0x3e0c0f57	0.13677727
102	0x3d2cd60f	0.04219633
103	0xbdb061c5	-0.08612398
104	0xbdc3d1fd	-0.095615365
105	0x3cbbd8ed	0.022930587
106	0x3d90331c	0.07040998
107	0x3de2f40b	0.11081704
108	0x3e2a4630	0.16628337
109	0xbbdeb14b	-0.0067960373
110	0x3d3eb6d5	0.04656108
111	0x3e0ea78f	0.13931106
112	0x3d3b56b1	0.045736972
113	0xbbb16430	-0.0054135546
114	0x3e05fd80	0.13084984
115	0xbd391328	-0.045184284
116	0x3d2f3e74	0.04278417
117	0xbcf1d5bd	-0.029520864
118	0x3d8e374e	0.06944142
119	0x3e0e4452	0.1389325
120	0x3d6280da	0.055298664
121	0x3d36414a	0.04449586
122	0x3c9c323f	0.019066928
123	0x3dd48ddd	0.10378621
124	0x3d875301	0.066076286
125	0x3d6bec12	0.05759818
126	0x3d93d269	0.07217867
127	0x3ddb73ee	0.10715471
128	0x3daa966f	0.08329474
129	0x3de21601	0.11039353
130	0x3db02b90	0.08602059
131	0x3d1e663a	0.03867171
132	0x3cc1de11	0.02366546
133	0xbbc5300a	-0.0060176896
134	0xbd02c62e	-0.03192728
135	0xbd07ecec	-0.03318493
136	0x3ca1abce	0.019735243
137	0xbdc9a24f	-0.09845411
138	0xbdcb6edc	-0.09933254
139	0xbd6fb6d2	-0.05852396
140	0xbd19f7a5	-0.037589688
141	0x3dcfb440	0.10141802
142	0x3d7d1c6f	0.061794695
143	0x3dbb607e	0.09149264
144	0xbd8833f1	-0.06650532
145	0x3d875fed	0.06610093
146	0xbcdfa4b9	-0.027300226
147	0x3dcf4610	0.10120785
148	0xbd68b4bc	-0.056812987
149	0x3cb48daf	0.022040216
150	0x3d5daa01	0.054117206
151	0xbd6ec249	-0.058290754
152	0x3da148bd	0.07875202
153	0xbd6890dd	-0.056778777
154	0x3bc7fd00	0.006103158
155	0x3d79616e	0.06088393
156	0x3c04ac5a	0.008097732
157	0xbd638bed	-0.055553365
158	0xbd93c957	-0.07216137
159	0xbd87f7e2	-0.06639077
160	0x3dcde41b	0.10053273
161	0xbd252c78	-0.04032561
162	0xbdd0317f	-0.10165691
163	0xbd6c3126	-0.05766406
164	0x3de8d73f	0.1136918
165	0x3d085c94	0.033291414
166	0x3e08cfce	0.13360521
167	0xbd61825c	-0.05505596
168	0x3d1adff3	0.03781123
169	0xbd87e278	-0.06634992
170	0xbdf240e3	-0.118287824
171	0xbdc57c21	-0.09642816
172	0xbd828d21	-0.063745745
173	0xbce5f130	-0.028069109
174	0xbd979ce9	-0.07402975
175	0x3c599671	0.013280497
176	0xbd9d18af	-0.07670724
177	0xbdb35112	-0.08755697
178	0xbc9e6326	-0.019334387
179	0x3d3072d8	0.043078274
180	0x3dc4665d	0.09589837
181	0xbdac3e55	-0.084103264
182	0x3cfea1ca	0.031083006
183	0xbda64e36	-0.08120386
184	0x3d939513	0.07206168
185	0x3da209e1	0.079120405
186	0x3b3dc479	0.0028956218
187	0x3d964c20	0.073387384
188	0xbcfe9731	-0.031077953
189	0x3defa3d2	0.11701168
190	0xbdf44b3a	-0.11928411
191	0xbd2a6630	-0.04160136
192	0x3d54d917	0.051964846
193	0xbb3fedd4	-0.0029286044
194	0x3e0218c6	0.12704763
195	0x3e6a7307	0.22895442
196	0x3d0cff6e	0.034423284
197	0x3e5ae116	0.21374926
198	0x3e433e0b	0.19066636
199	0x3de12b72	0.10994615
200	0x3e12ccd1	0.14335944
201	0x3c5bdeff	0.013419866
202	0xbdbc92bc	-0.09207675
203	0x3d87c8fc	0.066301316
204	0x3dc93a0b	0.09825524
205	0xbd84e40e	-0.064888105
206	0xb9c5cd23	-0.00037727607
207	0x3d95fcfc	0.073236436
208	0xbd3bde81	-0.045866493
209	0x3d5dcf22	0.054152615
210	0x3d2798b0	0.0409171
211	0x3e2e0f70	0.16998076
212	0x3e2e32b4	0.17011529
213	0x3d51b89e	0.051201455
214	0x3d0c4a33	0.03425045
215	0x3c7a36fc	0.015271898
216	0xbd18aa46	-0.03727176
217	0xbbf240c4	-0.0073929746
218	0x3dc88f44	0.09792951
219	0xbcd1a156	-0.025589626
220	0xbd04b28c	-0.032396838
221	0xbd4d99b2	-0.050195403
222	0x3dbe5ca1	0.09295011
223	0x3de0dc78	0.10979551
224	0x3d545a12	0.05184371
225	0xbbfade5d	-0.0076559023
226	0xbdb14a09	-0.08656699
227	0x3d29c0f0	0.041443765
228	0x3d400b1d	0.0468856
229	0x3dfdc8d6	0.12391822
230	0xbd2d6a47	-0.042337682
231	0xbd8cac63	-0.06868818
232	0xbc20a177	-0.009804121
233	0xbd8aca81	-0.06776906
234	0x3727f880	1.0011834e-05
235	0xbd8b886f	-0.06813132
236	0x3ddcc8b0	0.107804656
237	0x3e52cf9d	0.2058701
238	0x3d57a233	0.05264492
239	0x3dbb9fa0	0.091613054
240	0x3e3dfaee	0.18552753
241	0x3e21db97	0.15806423
242	0xbd6f4fa0	-0.058425546
243	0x3d5aa625	0.053381104
244	0x3dfa0c0a	0.122093275
245	0x3e332f86	0.17498598
246	0xbaea50d5	-0.0017876873
247	0xbc757ff0	-0.014984116
248	0xbd5be140	-0.053681612
249	0x3de6b259	0.11264486
250	0xbd326b03	-0.043559086
251	0xbd6d0349	-0.05786446
252	0x3d150058	0.03637728
253	0xbd9a0dfe	-0.075222
254	0xbd752a48	-0.059854776
255	0x3d9abbe5	0.07555369

lstm.weight_ih_l0_reverse f4 [256, 4]
0	0xbc4c47e3	-0.012468311
1	0xbd3bec54	-0.045879677
2	0xbe843252	-0.2581964
3	0xbe148379	-0.14503278
4	0x3e283078	0.1642474
5	0x3d822518	0.06354731
6	0x3e1e16bf	0.15438364
7	0xbd6e8d7b	-0.058240395
8	0x3e83e402	0.25759894
9	0xbdb1d2f6	-0.08682816
10	0x3c8394bb	0.016062131
11	0x3e2964b3	0.1654232
12	0xbda688c4	-0.08131555
13	0xbd7f8e3a	-0.062391497
14	0xbdde036a	-0.10840495
15	0xbe44f7bc	-0.19235128
16	0x3e8a80b8	0.2705133
17	0xbe66a31d	-0.2252316
18	0xbe257196	-0.16156611
19	0xbe552308	-0.20814145
20	0xbbed0c0c	-0.007234102
21	0x3db9d9d1	0.09074748
22	0xbd805212	-0.06265654
23	0xbe5bff8b	-0.214842
24	0x3e3e63b1	0.18592717
25	0xbdfcbf10	-0.1234113
26	0xbe44618d	-0.19177838
27	0xbe87ca5e	-0.2652158
28	0x3ea35820	0.31903172
29	0x3bfe5872	0.0077620083
30	0xbe2b469e	-0.16726157
31	0xbeb520ae	-0.35376495
32	0xbdc8638c	-0.09784612
33	0xbd82dedc	-0.06390163
34	0xbd94aaf7	-0.072591715
35	0xbe6334c2	-0.22188094
36	0x3de85d3a	0.113459066
37	0xbd6da9de	-0.058023326
38	0xbd7db3f5	-0.0619392
39	0xbe08b6c9	-0.13350977
40	0xbdabe5b9	-0.083934255
41	0x3c00c5a0	0.0078596175
42	0x3cdac590	0.026705533
43	0xbc8f8550	-0.017519623
44	0x3e89455c	0.2681073
45	0xbdec2714	-0.11530891
46	0xbe41a4b3	-0.18910484
47	0xbe823919	-0.25434187
48	0x3d8b53df	0.068031065
49	0xbdb3e650	-0.08784163
50	0x3cb6ac8f	0.02229908
51	0xbde10427	-0.1098712
52	0x3dbc15d1	0.09183849
53	0x3d2c5699	0.042074773
54	0xbe808886	-0.2510416
55	0xbe22b29a	-0.15888444
56	0x3ea941f5	0.33058134
57	0xbe2eb2ae	-0.17060348
58	0xbe068631	-0.13137127
59	0xbe475bfb	-0.19468682
60	0x3c910c9e	0.017706212
61	0xbd059979	-0.032617066
62	0xbe3763a2	-0.179091
63	0xbdc15f12	-0.09441961
64	0x3eb3e4bb	0.35135445
65	0xbd5388dc	-0.05164419
66	0xbd1af9b8	-0.037835807
67	0xbe40dac2	-0.1883345
68	0x3e5a431e	0.21314666
69	0xbe0c2224	-0.13684899
70	0xbd08a31e	-0.033358686
71	0xbec7fb88	-0.3905909
72	0x3dd695a2	0.10477759
73	0x3defdef2	0.11712445
74	0x3e205516	0.15657458
75	0x3e1fa6d1	0.15590979
76	0xbd7c29d7	-0.06156334
77	0xbcfe5a02	-0.031048778
78	0x39aef639	0.00033371316
79	0xbdc7bcf8	-0.0975284
80	0xbd002305	-0.031283397
81	0x3c66a71d	0.014077929
82	0x3d189ff6	0.037261926
83	0xbd761b18	-0.060084432
84	0x3d8178df	0.063218825
85	0xbd8d1017	-0.068878345
86	0xbe133b8a	-0.14378181
87	0xbcf4ba8f	-0.029874114
88	0x3d9a7a91	0.07542909
89	0xbc9be51b	-0.019030144
90	0xbdfafc07	-0.12255102
91	0x3d55c81b	0.05219279
92	0x3e8f29cf	0.27961585
93	0xbdaf8ceb	-0.085718
94	0xbe0479d7	-0.12937103
95	0xbcb9753a	-0.022638906
96	0x3e941e6b	0.28929457
97	0x3b913a40	0.004431993
98	0xbe8082b4	-0.2509972
99	0xbe418b9d	-0.18900914
100	0xbd9d4bd4	-0.07680479
101	0xbcd5c1e0	-0.026093423
102	0xbe304db6	-0.17217144
103	0xbe27e38a	-0.16395393
104	0xbe208ca7	-0.15678655
105	0x3cc8f7f1	0.02453229
106	0xbddf8ac6	-0.10915141
107	0xbe45bdbe	-0.19310662
108	0x3db2fd10	0.08739674
109	0xbcbf11b6	-0.023323875
110	0xbd5f5c9b	-0.054531675
111	0xbddc85e5	-0.10767726
112	0x3e0ae2a1	0.13563015
113	0xbe392303	-0.18079762
114	0x3de86bd8	0.113486946
115	0x3c5de1aa	0.013542572
116	0xbd99a668	-0.075024426
117	0x3d963148	0.073336184
118	0x3d058fe0	0.032607913
119	0xbb9dbc76	-0.004813726
120	0x3e52f06a	0.20599523
121	0x3baa3c1c	0.005195154
122	0xbd840dea	-0.064479664
123	0xbebd58a7	-0.369817
124	0x3e8a6c16	0.27035588
125	0xbbec65af	-0.00721427
126	0xbd9b923c	-0.07596251
127	0x3e139063	0.14410548
128	0x3dad0fb5	0.084502615
129	0x3d8b0b44	0.06789258
130	0x3ba66ff7	0.005079265
131	0xbd84e5f2	-0.06489171
132	0x3d6bb917	0.057549562
133	0x3d6a530c	0.057208106
134	0x3dcf728b	0.10129269
135	0xbd93f70e	-0.07224856
136	0x3dac43c8	0.08411366
137	0xbd513fd8	-0.051086277
138	0xbd6fed94	-0.05857618
139	0xbe530204	-0.20606238
140	0x3e5c51c2	0.21515563
141	0x3ba79624	0.0051143337
142	0xbdd2c7ad	-0.102919914
143	0xbe0f527d	-0.1399631
144	0xbe3a5af2	-0.18198755
145	0xbd9f85b3	-0.07789173
146	0x3d12e887	0.035866287
147	0x3d99ee7f	0.07516193
148	0x3e67a659	0.2262205
149	0x3d7708af	0.060311016
150	0xbdb4ae6a	-0.08822329
151	0xbd45a604	-0.048254028
152	0xbd95151d	-0.07279418
153	0xbe07bd71	-0.1325586
154	0x3d7bc24e	0.0614646
155	0x3d209308	0.03920272
156	0x3e7e662c	0.24843663
157	0xbd358e37	-0.04432508
158	0xbe8412f9	-0.25795725
159	0xbe62e81e	-0.22158858
160	0x3e423f18	0.18969381
161	0xbe479493	-0.1949027
162	0xbe3bea6b	-0.18351142
163	0xbe4a0389	-0.19727911
164	0x3ca69acc	0.020337485
165	0x3d811a81	0.06303883
166	0x3dd45e26	0.1036952
167	0xbe2414c7	-0.16023551
168	0xbd5e847e	-0.054325573
169	0x3dcea0a2	0.10089232
170	0xbd18344c	-0.03715925
171	0xbd4589e1	-0.048227195
172	0x3d8f91af	0.07010209
173	0xbd405ab0	-0.046961486
174	0xbdefcaa2	-0.11708571
175	0xbcae7c41	-0.021299483
176	0x3e5d9a2b	0.21640842
177	0x3d39ba30	0.045343578
178	0xbe063351	-0.13105513
179	0xbea134ef	-0.31485698
180	0x3d2ecb2e	0.042674236
181	0xbd031ece	-0.0320118
182	0xbe123a40	-0.14280033
183	0xbe2c47c2	-0.16824248
184	0x3e9a5031	0.30139306
185	0x3d734d26	0.059399746
186	0xbd33f514	-0.043934897
187	0x3a0763cf	0.0005164714
188	0x3e3d1f1d	0.184689
189	0xbe0f51e4	-0.13996083
190	0xbe4a28a5	-0.19742067
191	0xbe9645f6	-0.2935025
192	0x3e820312	0.25392967
193	0xbdd9688a	-0.10615642
194	0xbd6b70b9	-0.057480548
195	0x3c92cd88	0.01792027
196	0xbdae15c9	-0.08500249
197	0x3db88c1b	0.09011098
198	0xbdd56a17	-0.10420626
199	0x3dfbcfcb	0.12295493
200	0xbd9e711c	-0.07736418
201	0xbdeaf4a8	-0.11472446
202	0x3bc9f6e0	0.006163463
203	0xbe1b0d63	-0.15141825
204	0xbdcb8737	-0.099378996
205	0x3bfa7f5a	0.007644576
206	0xbd734bc1	-0.059398416
207	0xbea7cd33	-0.32773742
208	0x3df0c62a	0.11756547
209	0x3dec2e87	0.11532312
210	0xbe06de12	-0.1317065
211	0x3df7369f	0.12070965
212	0x3e98cc5b	0.2984341
213	0xbd9fb6f0	-0.077985644
214	0xbdb853bb	-0.09000345
215	0xbe736ddf	-0.23772381
216	0xbdaa8891	-0.08326829
217	0xbe1811dc	-0.14850563
218	0xbe40b5d6	-0.18819365
219	0xbc98d429	-0.018655853
220	0x3e768b9d	0.24076696
221	0xbe401210	-0.1875689
222	0xbcf3ff61	-0.02978486
223	0xbed59888	-0.41717935
224	0x3e6de2c6	0.23231038
225	0xbe5ee681	-0.21767618
226	0xbe6f1e37	-0.2335137
227	0xbeb8e62d	-0.3611311
228	0x3e0cf02d	0.13763495
229	0x3d9878f8	0.07444948
230	0x3de2ee3e	0.11080597
231	0x3dc5d685	0.09660057
232	0xbc380282	-0.011231067
233	0x3d821555	0.06351725
234	0xbd804251	-0.06262649
235	0xbe1116ca	-0.1416885
236	0x3ce62466	0.028093528
237	0xbe005587	-0.12532626
238	0xbd9b47f3	-0.075820826
239	0xbdbc6671	-0.09199227
240	0x3e567baa	0.20945612
241	0xbcaa48a9	-0.0207866
242	0xbe139c76	-0.14415154
243	0xbe06c564	-0.13161236
244	0xbe1ee27c	-0.15516084
245	0xbe108cf1	-0.14116265
246	0xbe19d9c0	-0.15024471
247	0xbe515d43	-0.20445733
248	0x3e73ba00	0.23801422
249	0xbd7ec4c2	-0.06219936
250	0xbe371299	-0.17878188
251	0xbe6963ac	-0.22791928
252	0x3c9a28f7	0.018818362
253	0xbddddce1	-0.10833145
254	0xbdd5824f	-0.10425245
255	0xbc600692	-0.0136734415

lstm.weight_hh_l0_reverse f4 [256, 64]
0	0xbdcc5d5e	-0.09978746
1	0xbdc668da	-0.096879676
2	0x3d65d6a8	0.056112915
3	0x3d3b4edc	0.045729503
4	0xbcf4bf38	-0.029876336
5	0x3cbf87d8	0.023380205
6	0x3de56dc8	0.1120258
7	0x3d85ac90	0.06527054
8	0xbceaa0a8	-0.02864106
9	0x3d0b9490	0.034077227
10	0xbccb11a8	-0.024788693
11	0xbdbe4b42	-0.09291698
12	0xbdd1ce74	-0.10244456
13	0xbcaef728	-0.021358088
14	0xbcbc95e8	-0.0230207
15	0x3d233780	0.03984785
16	0xbdb0099e	-0.08595584
17	0x3c820208	0.01587011
18	0x3d92365c	0.071392745
19	0xbd39d02c	-0.045364544
20	0xbce6d8c0	-0.028179526
21	0x3d396f14	0.045271948
22	0x3d300ec0	0.042982817
23	0x3d0fc9a0	0.035104394
24	0xbc92b218	-0.017907187
25	0xbd85e24c	-0.06537303
26	0xbbf832c0	-0.0075744092
27	0x3dea8170	0.114504695
28	0xbde03ed6	-0.10949485
29	0xbdd8986a	-0.10575946
30	0x3bd2c380	0.006431997
31	0xbdc061c2	-0.09393646
32	0x3dc6babc	0.097035855
33	0xbd9bbe56	-0.07604663
34	0xbce04e08	-0.027380958
35	0x3db55b2c	0.0885528
36	0xbdce898c	-0.10084829
37	0x3b594240	0.003315106
38	0x3b9baa60	0.004750535
39	0xbd55beac	-0.052183792
40	0x3af8f900	0.0018995106
41	0x3d6b21b8	0.057405204
42	0x3c3bf160	0.0114711225
43	0xbd1b0670	-0.037847936
44	0xbd9e1e1e	-0.07720588
45	0x3df3df2e	0.119078025
46	0x3daa792c	0.08323893
47	0xbd82caaa	-0.06386311
48	0x3d4c4728	0.049872547
49	0xbd60c3dc	-0.054874286
50	0xbd253ce0	-0.040341258
51	0x3c99b588	0.018763319
52	0xbcc89870	-0.02448675
53	0x3d38198c	0.04494624
54	0x3dfc8910	0.1233083
55	0x3d88a2ac	0.06671652
56	0xbd397cac	-0.045284912
57	0x3def7e5e	0.116940245
58	0x3d0af5e0	0.03392589
59	0x3d2becc4	0.041973844
60	0xbd36ed2c	-0.04465978
61	0xbcb13f08	-0.021636501
62	0xbd8285f8	-0.06373209
63	0x3d07dfe4	0.033172503
64	0xbde67352	-0.11252464
65	0x3d9bd7a4	0.076094896
66	0xbda38aec	-0.079854816
67	0x3c334e70	0.010943994
68	0xbdedcc5e	-0.116112456
69	0xbd1f0ddc	-0.038831577
70	0x3d3a85bc	0.045537695
71	0x3d2b7fd0	0.04186994
72	0xbd80c7b4	-0.0628809
73	0x3daefc9a	0.08544274
74	0x3c2c93c0	0.010533273
75	0xbc08a4c0	-0.008340061
76	0xbcc00f48	-0.023444787
77	0xbd02ec3c	-0.031963572
78	0x3cf605d0	0.030032068
79	0xbcbf7ec0	-0.023375869
80	0x3ddd6390	0.10810006
81	0xbdd5c0f2	-0.10437192
82	0x3bab6740	0.005230814
83	0x3d8f88c6	0.07008509
84	0xbd9aa9dc	-0.07551929
85	0xbcd00de8	-0.025397256
86	0x3d1203bc	0.035648093
87	0xbc0b2370	-0.008492336
88	0x3d982902	0.074296966
89	0xbd5b1eb4	-0.053496078
90	0x3d020028	0.03173843
91	0x3d9fcef8	0.07803148
92	0x3d7ca1c4	0.06167771
93	0xbd560fd8	-0.052261204
94	0xbd555c68	-0.05209008
95	0xbcd1f7b8	-0.025630817
96	0x3b1d5b40	0.0024010688
97	0x3dbd912a	0.092562035
98	0x3d93299c	0.07185671
99	0xbcd6cd00	-0.026220798
100	0x3dae8cd6	0.08522956
101	0xbd8d28a0	-0.06892514
102	0xbdeaeb3c	-0.11470649
103	0xbc71d130	-0.014759347
104	0x3db14474	0.086556345
105	0x3df520fc	0.11969182
106	0x3d4db248	0.05021885
107	0xbcc1dd30	-0.02366504
108	0x3c025960	0.007955879
109	0xbcc134d0	-0.023584753
110	0xbc846d98	-0.01616554
111	0xbdce362a	-0.10068925
112	0xbdb1d3c2	-0.08682968
113	0x3d0c8fac	0.034316704
114	0xbd86cd92	-0.06582178
115	0xbadc8c00	-0.0016826391
116	0xbdb18404	-0.08667758
117	0xbdfb0b6e	-0.122580394
118	0x3dac7372	0.08420457
119	0xbde9cd02	-0.11416055
120	0xbd836378	-0.064154565
121	0x3cc9e6e8	0.024646237
122	0x3c046ae0	0.008082122
123	0x3da4b132	0.0804161
124	0x3d89bef6	0.06725876
125	0x3def0084	0.1167002
126	0xbd391788	-0.045188457
127	0xbdc64954	-0.09681955
128	0xbc462500	-0.012093782
129	0x3d835780	0.06413174
130	0x3da385a6	0.07984476
131	0x3dbe67a4	0.09297112
132	0xbd8aebee	-0.06783281
133	0xbdb26c5c	-0.08712074
134	0x3d15afe0	0.03654468
135	0x3bf60400	0.007507801
136	0x3de73886	0.11290078
137	0xb9a52200	-0.00031496584
138	0x3da415b4	0.08011952
139	0x3dcd9fa0	0.10040212
140	0x3d3048e0	0.04303825
141	0xbda59618	-0.08085269
142	0x3da4a136	0.08038561
143	0x3db0b904	0.08629039
144	0x3de0a620	0.10969186
145	0x3d2c1af0	0.042017877
146	0xbd9e6d2c	-0.07735667
147	0x3d550c1c	0.0520135
148	0x3d94671e	0.072462305
149	0x3dc386e6	0.09547214
150	0xbdcf2f2e	-0.10116421
151	0x3d2e6008	0.04257205
152	0xbc615c60	-0.013754934
153	0x3d938c46	0.072044894
154	0xbd42c3e0	-0.047550082
155	0xbd92381c	-0.07139608
156	0xbda1749e	-0.07883571
157	0xbaaeec80	-0.0013345629
158	0x3dfe4162	0.124148145
159	0x3d6d3f48	0.057921678
160	0xbd599a14	-0.053125456
161	0xbd954c70	-0.0728997
162	0xbd015ffc	-0.03158568
163	0xbde0313e	-0.10946892
164	0xbdd9ae1c	-0.10628912
165	0x3d378b2c	0.04481046
166	0xbd1f8810	-0.03894812
167	0x3d7284d4	0.059208706
168	0xbdf13048	-0.11776787
169	0x3ce420e8	0.027847722
170	0xbdcd912a	-0.100374535
171	0x3dd3bad4	0.10338369
172	0x3dfd8e20	0.12380624
173	0xbcc4e288	-0.0240338
174	0x3d91935e	0.07108186
175	0xbba27400	-0.004957676
176	0xbd6915bc	-0.056905493
177	0xbd15fcfc	-0.036618218
178	0xbd94155e	-0.07230638
179	0xbd8bd750	-0.06828177
180	0xbd0e5b5c	-0.034755096
181	0xbd2cfc18	-0.042232603
182	0xbdd7b114	-0.10531822
183	0x3d873c0e	0.066032514
184	0x3d97daac	0.07414755
185	0xbc169d00	-0.009192705
186	0x3ba885e0	0.0051429123
187	0xbdc25514	-0.094888836
188	0x3dcd4414	0.100227505
189	0xbac4ca00	-0.0015013814
190	0xbdbc32c8	-0.09189373
191	0x3d743604	0.059621826
192	0xbb140040	-0.0022583157
193	0xbdf9b480	-0.12192631
194	0x3d425220	0.0474416
195	0xbda5cb7e	-0.08095454
196	0x3dd89416	0.1057512
197	0xbc88ad70	-0.016684264
198	0x3d959460	0.07303691
199	0x3cfc2090	0.030777246
200	0x3def5c5c	0.11687538
201	0x3df4b3e2	0.119483724
202	0xbd2bfa50	-0.041986763
203	0xbddeff94	-0.108885914
204	0xbcf585a8	-0.029970959
205	0x3c99a068	0.018753245
206	0xbdffe1ce	-0.12494241
207	0x3d9d683c	0.07685897
208	0xbc97b730	-0.018519968
209	0x3b4e3500	0.0031464696
210	0xbc5da0e0	-0.013527125
211	0x3d322344	0.043490663
212	0xbbac2820	-0.0052538067
213	0xbcee2ce0	-0.029074132
214	0xbc09d1b0	-0.00841181
215	0xbc6dfa30	-0.014524981
216	0x3d8907ea	0.066909626
217	0xbdc8fd4e	-0.09813939
218	0x3dcec27e	0.1009569
219	0xbd0242b4	-0.031801894
220	0xbdfdd27c	-0.12393662
221	0xbdbefbe8	-0.09325391
222	0xbcc0d060	-0.023536861
223	0xbd1972fc	-0.037463173
224	0xbdaba254	-0.08380571
225	0xbdb260bc	-0.08709857
226	0x3d322258	0.043489784
227	0xbd8f4dca	-0.06997259
228	0x3be45b80	0.0069689155
229	0xbdbd89ce	-0.092548
230	0xbcbcb448	-0.023035184
231	0x3cbe4ae0	0.023229063
232	0xbc430e90	-0.011905327
233	0xbdf92dac	-0.12166914
234	0xbd6bdbe8	-0.057582766
235	0x3df004cc	0.11719665
236	0x3d78a3b8	0.06070301
237	0xbdd215e8	-0.102580845
238	0xbdde6a22	-0.10860087
239	0xbda7b70a	-0.08189209
240	0x3da6ba06	0.0814095
241	0x3d872b6a	0.066000775
242	0xbcc797e8	-0.024364427
243	0x3dabc0a4	0.08386353
244	0x3d6c3e30	0.057676494
245	0x3de0a216	0.109684154
246	0x3d6c5210	0.05769545
247	0xbcb67978	-0.022274718
248	0x3cb61ee8	0.022231534
249	0xbde91500	-0.113809586
250	0xbd349ae4	-0.044093028
251	0xbdb9525c	-0.09048912
252	0xbca4aac0	-0.020100951
253	0x3dc7f3be	0.09763287
254	0x3d5339e0	0.051568866
255	0x3de3b0ee	0.11117731

lstm.bias_ih_l0_reverse f4 [256]
0	0x3d322bc1	0.04349876
1	0x3cab2603	0.020892149
2	0x3de2ea41	0.11079837
3	0x3d996f2c	0.074919075
4	0x3e80f3f0	0.2518611
5	0xbd926759	-0.07148618
6	0xbd440f17	-0.047865953
7	0x3d5e53b3	0.05427904
8	0x3d02c839	0.03192923
9	0x3e1a54af	0.15071367
10	0xbd5753b3	-0.052570056
11	0x3dc94538	0.098276556
12	0xbdbe7f98	-0.0930168
13	0xbdbc91f4	-0.09207526
14	0x3d897547	0.06711822
15	0x3c41672a	0.011804381
16	0x3da85734	0.08219758
17	0x3dd50796	0.104018375
18	0x3c9f6882	0.019459013
19	0x3d503cdf	0.0508393
20	0xbdfac274	-0.1224412
21	0x3e0ec513	0.13942365
22	0xbdbc1eac	-0.09185538
23	0x3e263a4e	0.16233179
24	0x3cf93b57	0.030423803
25	0x3a8ae169	0.0010595742
26	0xbdcfc758	-0.10145444
27	0xbd9c2e7c	-0.07626054
28	0x3d95064c	0.07276592
29	0xbc7f8988	-0.015596755
30	0x3e7c7f8f	0.24658035
31	0xbd92c116	-0.071657345
32	0x3d25c69e	0.04047262
33	0xbe00ea4c	-0.12589377
34	0x3d116a64	0.035501853
35	0xbd0a4352	-0.033755608
36	0x3d2028e7	0.039101508
37	0x3dd293b6	0.1028208
38	0xbcc14ba0	-0.023595631
39	0x3e65311b	0.22382013
40	0xbdad9d88	-0.08477312
41	0xbb09a7d5	-0.0021004577
42	0xbdde755c	-0.10862228
43	0xbc58e149	-0.013237306
44	0xbd20a233	-0.039217185
45	0xbdea31c7	-0.114352755
46	0xbd8dc6aa	-0.06922658
47	0x3e279980	0.1636715
48	0x3dee3569	0.11631281
49	0xbdd06ed5	-0.101773895
50	0xbc2210e0	-0.009891719
51	0x3e2e8397	0.17042385
52	0xbdc21e9f	-0.09478497
53	0x3e5ed156	0.21759543
54	0x3d64ab45	0.055827398
55	0x3db7ec35	0.089806
56	0x3c918282	0.017762426
57	0x3d34ebdc	0.044170246
58	0xbd219fdd	-0.039459098
59	0xbb17534a	-0.0023090416
60	0x3e007210	0.12543511
61	0xbdaee2d6	-0.08539359
62	0x3e1a43e4	0.1506496
63	0x3d859879	0.065232225
64	0xbddb47fa	-0.10707088
65	0x3cb3cab8	0.02194725
66	0x3d90fe9c	0.07079813
67	0x3d458038	0.048217982
68	0x3d60b7a0	0.05486262
69	0xbd9c5c08	-0.07634741
70	0xbda066b4	-0.07832089
71	0x3df68b2a	0.12038262
72	0x3d95e746	0.073195025
73	0xbd4a3264	-0.049364462
74	0xbc1f32b0	-0.009716675
75	0x3cde25c8	0.027117625
76	0x3dbbc44a	0.091682985
77	0xbda1f486	-0.07907967
78	0x3de879f6	0.11351387
79	0x3d8bf1b0	0.068332076
80	0xbd81a390	-0.06330025
81	0x3ca60538	0.02026616
82	0xbb9d37c0	-0.0047979057
83	0x3cd128e0	0.025532186
84	0x3caec638	0.021334752
85	0xbd0b7c88	-0.03405431
86	0xbda726b8	-0.08161682
87	0x3d9f0d12	0.07766165
88	0x3db36152	0.08758797
89	0xbde731a8	-0.11288768
90	0x3d390e20	0.045179486
91	0x3dddb23a	0.1082501
92	0x3db3a11e	0.08770965
93	0x3dc0d40c	0.09415445
94	0xbcfbd448	-0.030740872
95	0xbd792138	-0.060822695
96	0x3deb8d10	0.11501515
97	0xbd82aefc	-0.06381032
98	0xbd7db590	-0.06194073
99	0xbc0fa990	-0.008768454
100	0x3db4c9dc	0.08827564
101	0xbdca01bc	-0.09863612
102	0xbda5200c	-0.08062753
103	0xbd7d0040	-0.061767817
104	0x3db05886	0.086106345
105	0x3da09d0c	0.07842454
106	0x3d188e50	0.037245095
107	0xbdf25db6	-0.1183428
108	0xbbf15c20	-0.0073657185
109	0x3d8d9c6c	0.06914601
110	0x3d4c2ab4	0.049845412
111	0xbda7225a	-0.08160849
112	0xbd70f780	-0.058829784
113	0xbda05ca6	-0.07830171
114	0x3d82c44c	0.06385097
115	0xbdd5a3d8	-0.10431641
116	0x3dddb91c	0.108263224
117	0xbdc93ba6	-0.0982583
118	0x3d906894	0.07051197
119	0xbd79853c	-0.060918078
120	0xbd222430	-0.039585292
121	0x3d094620	0.033514142
122	0x3db105dc	0.08643696
123	0x3c2ded80	0.010615706
124	0x3c243fc0	0.010024965
125	0x3b1328c0	0.0022454709
126	0x3dc559a0	0.09636235
127	0xbd9c6efc	-0.07638356
128	0xbd45cacb	-0.0482891
129	0x3d95462d	0.072887756
130	0xbd7ec322	-0.062197812
131	0xbd8758b9	-0.066087194
132	0xbd536263	-0.0516075
133	0x3d30648c	0.04306464
134	0x3db946a9	0.090466805
135	0xbd044ecd	-0.032301713
136	0x3da277b7	0.0793299
137	0xbc7c1b6f	-0.0153874
138	0x3d24fc46	0.04027965
139	0x3cd3c63d	0.025851363
140	0x3dd3c938	0.10341114
141	0xbdc7a5fd	-0.097484566
142	0xbdb9fdf8	-0.09081644
143	0xbc0f4649	-0.008744785
144	0xbbd684b7	-0.0065465826
145	0x3d2455ac	0.040120766
146	0x3d6994f7	0.05702683
147	0xbdbb2973	-0.09138765
148	0xbc775d43	-0.015097919
149	0xbda8d2c0	-0.08243322
150	0xbdce5bb3	-0.10076084
151	0x3d9f3123	0.07773044
152	0x3bce0613	0.006287345
153	0xbdbecdb7	-0.09316581
154	0x3d5744ab	0.05255572
155	0x3bad2afd	0.0052846656
156	0x3de89177	0.1135587
157	0x3db65840	0.08903551
158	0xbc805c41	-0.01566899
159	0x3d3c88fc	0.046029076
160	0x3cbcf9b6	0.02306829
161	0x3d8bf50e	0.0683385
162	0x3d489e74	0.048979238
163	0xbcb7a908	-0.022419468
164	0xbcda1a69	-0.026623921
165	0xbbee16a4	-0.0072658826
166	0x3db4ea7e	0.08833788
167	0x3e0e60bc	0.13904089
168	0xbdda1582	-0.106486335
169	0xbd621c0b	-0.055202525
170	0xbd0c5a41	-0.03426576
171	0xbdd1e817	-0.10249346
172	0x3d91eb2c	0.071249336
173	0x3ca87767	0.020564748
174	0xbb2a88f1	-0.0026021565
175	0xbc915763	-0.017741865
176	0x3d083ce7	0.033261206
177	0xbcf2781c	-0.029598288
178	0x3cb27b52	0.02178732
179	0xbe08d726	-0.13363323
180	0x3da8add1	0.08236278
181	0xbd94c5f2	-0.072643176
182	0xbdf733c9	-0.12070424
183	0x3cf1e025	0.029525826
184	0xbd6be897	-0.05759486
185	0x3d12c685	0.035833854
186	0x3c9b3cca	0.018949885
187	0xbd58aefb	-0.05290125
188	0xbcf0c26b	-0.02938958
189	0xbdd24c23	-0.10268428
190	0x3c1ea0c2	0.009681882
191	0x3d123817	0.035698023
192	0x3ca0e59e	0.01964074
193	0x3e1c09ed	0.15238161
194	0x3d72c883	0.059273254
195	0x3d936c69	0.07198412
196	0x3e7ea919	0.24869193
197	0x3d8279c9	0.06370885
198	0xbda78165	-0.08178977
199	0x3e2c9a4f	0.16855739
200	0xbd839bd7	-0.064262085
201	0x3de696c0	0.11259222
202	0x3dc62d20	0.09676576
203	0x3d806ec2	0.062711254
204	0x3d98725b	0.074436866
205	0xbd5a6ca8	-0.05332628
206	0xbcf04326	-0.029328894
207	0x3e14beef	0.1452596
208	0x3dad805d	0.08471749
209	0x3e82bd46	0.2553503
210	0xbdf4b065	-0.11947707
211	0xbc772f68	-0.015086986
212	0xbe059263	-0.13044123
213	0xbd573f09	-0.05255035
214	0x3d7fcd8c	0.062451884
215	0x3d0c2c00	0.03422165
216	0x3e24df0f	0.16100715
217	0xba92a5e8	-0.001118836
218	0xbca36cce	-0.019949343
219	0xbd20c196	-0.039247118
220	0xbdb10d4a	-0.08645113
221	0xbe1ec8e5	-0.15506323
222	0x3e38534b	0.18000524
223	0xbdc28b04	-0.094991714
224	0x3db5abe9	0.0887068
225	0xbe1212eb	-0.14265029
226	0xbd2ddd0d	-0.04244714
227	0xbdc2d459	-0.09513158
228	0xbdde960c	-0.10868463
229	0xbcf44b16	-0.02982096
230	0x3db06d14	0.08614555
231	0x3e334955	0.17508443
232	0xbd8a172a	-0.067426994
233	0xbd9bac3e	-0.07601212
234	0xbd772301	-0.060336117
235	0xbd8cf19c	-0.06882021
236	0x3e046bfe	0.12931821
237	0x3db521f3	0.08844366
238	0x3de26c95	0.11055867
239	0x3d98341f	0.07431816
240	0xbd514a51	-0.051096264
241	0xbdcf1a9c	-0.10112497
242	0xbdec1bee	-0.11528765
243	0x3de2cbcb	0.11074027
244	0xbdbe5fce	-0.09295617
245	0x3ccb555f	0.024820982
246	0x3d2b404a	0.041809358
247	0x3d1d083d	0.038337935
248	0x3e46a6a9	0.19399513
249	0x3b327c1c	0.002723462
250	0x3d0d02bc	0.034426436
251	0x3c965213	0.018349683
252	0x3dcc42ae	0.09973656
253	0xbdbf4ef3	-0.0934123
254	0xbd84fa28	-0.06493026
255	0x3db3ddcd	0.087825395
