data_20sec_label01/models/best_bilstm_model.pt (torch, 148133 bytes, 9 tensors)

lstm.weight_ih_l0 f4 [256, 4]
000000 b7 58 84 bd 36 5b f3 bd ce 63 1d 3d 5d 92 5c 3d
       -0.064622335 -0.118826315 0.03842526 0.05385052
000010 49 bc 05 be bf 5e f3 bd ee ba a6 3d ce 76 07 be
       -0.13060106 -0.11883306 0.08141123 -0.13228914
000020 32 4e f3 bd c7 c9 c7 bc 24 b0 cf bc 40 ba de bd
       -0.11880149 -0.024388207 -0.025352545 -0.10875368
000030 e0 59 a7 bc df 76 f1 3d 50 6a d2 3b d9 04 1a 3e
       -0.020428598 0.11790251 0.006421365 0.15040912
000040 25 de 22 3d f9 4e ba 3d 73 78 a9 bc 42 cc 68 3d
       0.039762635 0.09097094 -0.020687317 0.05683542
000050 11 b7 e4 bd 82 ec 6b 3d fd 65 a7 3d 6d ca 16 bd
       -0.1116773 0.0575986 0.081737496 -0.036814142
000060 23 18 f4 3d 26 b1 5a 3d 40 6c 84 3d 5f 53 63 3d
       0.11918666 0.0533916 0.064659595 0.05549943
000070 5e 4f 45 3d 69 1b 3e 3d cf a0 b7 bd 12 50 f5 bd
       0.048171394 0.04641286 -0.08966219 -0.11978163
000080 db ba 60 bd 0d bc 30 3b 1f d7 a3 bd 13 e9 83 bd
       -0.0548657 0.0026967556 -0.080000155 -0.0644094
000090 7f a0 d8 3c a9 81 a4 3d 5c 8e 5a 3c fa 97 e4 bd
       0.026443718 0.08032543 0.013339605 -0.111618
0000a0 a1 69 02 3e 76 e2 84 bd 17 42 07 3e 78 ff e4 3c
       0.12735607 -0.064885065 0.13208805 0.027953848
0000b0 30 5f a9 3c 46 fc 13 bc 05 62 7d 3d 9d b5 dc bb
       0.020675272 -0.009032315 0.061861057 -0.006735517
0000c0 58 15 c8 bc 0a a9 06 3e c0 ec 04 3d f9 6a d5 bd
       -0.02442424 0.13150421 0.032452345 -0.10420794
0000d0 5f 98 f3 bd 04 28 da 3d 9e 5f 0d be 39 73 ca 3c
       -0.11894297 0.106521636 -0.13806006 0.024713146
0000e0 80 1c 0e bc c2 93 0d bd 37 be f4 3b 55 42 aa 3c
       -0.008673787 -0.03456474 0.0074689644 0.020783583
0000f0 62 4b 8c 3d 21 09 f8 3d de 10 b6 3d 9d ca 08 3c
       0.06850316 0.12111116 0.08889936 0.008349088
000100 7b 45 7c 3d 70 9f 14 3d 29 0c 24 3d 36 dc bf bd
       0.0615897 0.036284864 0.04005066 -0.09368174
000110 83 3a 97 3c 9a 6d 04 be e0 9a 03 3d f4 db 87 bd
       0.018460518 -0.12932435 0.032130122 -0.066337496
000120 e6 6e 89 bd 17 80 44 bd 05 15 e3 bd 25 66 87 3d
       -0.06710605 -0.04797372 -0.110879935 0.066112794
000130 9f 9b dc bc 39 3c e5 3d af 26 21 3d 7a 2f 95 3d
       -0.026929675 0.11193127 0.039343532 0.07284446
000140 44 99 a9 bd 98 74 66 bc 13 5a e7 3d c7 e5 7d 3d
       -0.08281186 -0.014065884 0.11296477 0.06198671
000150 98 54 cf 3d 32 03 dd 3d 98 d6 9c 3c a5 38 e8 bd
       0.10123557 0.10791625 0.019145295 -0.11338929
000160 c0 0e 0d be 41 ce e2 bd b9 62 ca 3d 21 4b ec bd
       -0.13775158 -0.11074496 0.09882111 -0.11537767
000170 c6 e4 d7 3c f4 d1 60 3d 0c 08 12 3e fa 6d 67 bd
       0.026354205 0.054887727 0.14260882 -0.056501366
000180 90 00 fe bd 67 7b 51 bd 86 09 12 3e 0c ee 29 3d
       -0.12402451 -0.051143076 0.14261445 0.041486785
000190 e5 99 d9 bd 2c ea e7 bd 43 ee d1 3d 03 10 80 3c
       -0.10625056 -0.113239616 0.10250523 0.015632635
0001a0 81 a5 de bb b9 5d e1 bd 88 53 07 38 f2 7b 01 3d
       -0.006794632 -0.11004204 3.2264303e-05 0.031612344
0001b0 e7 c7 99 3d 11 d8 8a bd e7 ea 90 bb b2 42 ee 3d
       0.075088315 -0.06779493 -0.004422534 0.11633815
0001c0 0a 41 1c bd 6b 07 68 bd 7e bf ec 3b 78 d6 88 3d
       -0.038147964 -0.0566477 0.007224976 0.06681532
0001d0 d0 28 26 be f0 0f fa 3d 10 7d 1c be 5e 49 8e bc
       -0.16226506 0.12210071 -0.15282083 -0.017368969
0001e0 2b 17 01 3d 9f 1a bc 3d eb ce da 3d 57 68 dc bd
       0.031516235 0.09184765 0.10683998 -0.10762089
0001f0 26 6c b4 bd eb 57 01 be 62 c5 c9 bd 65 93 48 3d
       -0.0880969 -0.12631194 -0.09852101 0.04896869
000200 7e 61 18 be 82 19 78 bc 7d 83 a0 bd a3 0b ad 3c
       -0.1488094 -0.0151428 -0.078375794 0.021123713
000210 67 86 de 3d 25 46 ca bd bd df 9d 3d 7f 9d e2 bd
       0.10865479 -0.0987666 0.0770869 -0.11065196
000220 4c 38 11 be 30 91 6d bd 05 f0 f6 bc ca 33 18 3d
       -0.14181632 -0.05799979 -0.030143747 0.037158765
000230 ba 72 9c bd 61 3f 1d bd d0 25 b0 3d 2c 5c d7 bd
       -0.0763907 -0.03839052 0.08600962 -0.10515627
000240 38 ec b6 bd 0c c0 20 3c 2f 9d 5a 3d 92 e7 05 3a
       -0.08931774 0.009811413 0.05337256 0.0005108054
000250 32 0b aa bc 38 ed 30 bd 58 cc 8d bd 3b 4d aa 3c
       -0.020757291 -0.04319498 -0.06923741 0.02078878
000260 42 c0 90 3c 1e fe 6b 3d 6e 33 4e bc ba 43 54 bd
       0.0176698 0.057615392 -0.012585504 -0.0518224
000270 04 5c f8 bd 06 9f 69 3d b3 d7 b3 3d ee 48 b0 bd
       -0.121269256 0.057036422 0.08781376 -0.0860766
000280 f9 19 8a 3d 69 76 a6 3d bd 8a 9a bc e6 68 ef bd
       0.06743235 0.08128054 -0.018864984 -0.1168993
000290 5b eb 75 3d 43 eb 31 3d e6 0e 69 bd 98 19 c2 bd
       0.060038906 0.043437254 -0.056898974 -0.09477538
0002a0 c4 09 eb bd 97 eb 9b bd c7 d8 9c bd 38 0c 87 3d
       -0.11476472 -0.076132946 -0.076585345 0.065941274
0002b0 03 6c 80 bd d6 b0 e4 bd 1a ba a2 3d 4a a7 91 bd
       -0.062706016 -0.11166541 0.07945652 -0.07111986
0002c0 e7 80 15 bd 28 51 cf bc 3e ea 77 3d 9a b2 ac 3d
       -0.036499884 -0.025307253 0.060526125 0.08432503
0002d0 f5 dd 39 3d d0 d3 84 3c ae a6 12 3d 44 28 af bd
       0.04537769 0.016214281 0.03580349 -0.08552602
0002e0 ce f5 7d bd 18 09 70 bd 4b ab f6 bd a8 66 38 bd
       -0.062001996 -0.058602422 -0.1204439 -0.045019776
0002f0 8a da b0 bd e4 59 8f 3d 91 d3 85 3c 25 60 9b bd
       -0.08635433 0.06999567 0.016336234 -0.075866975
000300 c5 2b 21 bd c7 94 f9 3a 71 dd 95 3d f6 da 75 bd
       -0.039348383 0.0019041531 0.07317627 -0.06002327
000310 ac 9d bd bd 06 00 b4 bd 73 32 a7 bc 58 f8 2a bd
       -0.09258589 -0.08789067 -0.020409798 -0.041740745
000320 7e 82 36 3a 1e d1 6c bc 4d f9 f0 3c d8 cf d0 bd
       0.0006962194 -0.014454154 0.02941575 -0.10195893
000330 d5 1e 48 3d e4 6f 1a 3d 57 1c b9 bc ea b7 0c be
       0.04885753 0.037704363 -0.022596521 -0.13742033
000340 12 55 a8 3c dd 1e e8 bb 13 cd 85 3c 75 8b b5 3d
       0.020548377 -0.0070837573 0.016333139 0.0886449
000350 1a 08 4a bd 63 46 89 bd c5 73 55 bd 38 68 0f 3e
       -0.049324133 -0.06702878 -0.05211236 0.140046
000360 b1 98 e5 bd a4 95 f8 3c 95 22 cb 3d 27 84 25 bd
       -0.11210764 0.030344792 0.099187054 -0.040409233
000370 fa 09 12 bd 4d 61 bc bc 74 e5 dc bd fb 99 e4 3d
       -0.035654046 -0.022995615 -0.10785952 0.11162182
000380 04 69 85 bd 10 b6 8e bd 1c bf 33 bd cc c2 f5 bd
       -0.06514171 -0.069683194 -0.043883428 -0.12000045
000390 35 4f ca 3d 6f 16 19 bd 91 b3 63 bd 9d c8 8c bd
       0.09878389 -0.03737491 -0.05559117 -0.068742014
0003a0 05 cf 13 bc bd c9 df bc 94 ac d5 3d 1d 29 d8 bd
       -0.009021525 -0.027317876 0.10433307 -0.10554717
0003b0 7f 6b bf bd 91 b3 d0 3a bd de a8 bd 99 08 c6 bd
       -0.09346675 0.0015922656 -0.08245609 -0.096696086
0003c0 8e de 23 3c c4 ff d2 bd c5 19 85 3c 85 4f a9 bd
       0.010001792 -0.1030269 0.01624764 -0.0826712
0003d0 ec 0b 03 3e 0a 2e 83 bd 1e 74 a4 bc a0 8d 05 be
       0.12797517 -0.06405266 -0.0200749 -0.13042307
0003e0 b2 b2 67 3c 99 4d f0 3c 44 98 8c 3d 62 4a b8 bc
       0.014141725 0.029333876 0.0686498 -0.022496406
0003f0 e5 0f 1f bd 3a 25 f3 3c 58 8c 9a bd c2 8a 30 3d
       -0.038833518 0.029680837 -0.075463 0.04310108

lstm.weight_hh_l0 f4 [256, 64]
000000 d9 db cd bd fb ca 61 3c d6 8c a9 bd 3a f6 91 bd
       -0.10051698 0.0137813045 -0.082788154 -0.07127042
000010 10 17 01 be ff 27 4f 3d 0a 5f 99 3b d1 9e ae 3d
       -0.12606454 0.050575253 0.004680519 0.085263856
000020 8d dd 02 3d 84 63 ac 3c 9c 68 42 3d 33 1d 63 3a
       0.03194957 0.021043546 0.047463045 0.0008663714
000030 5a a4 63 3d 7f 03 c9 bb b9 f7 61 3c d9 c7 7a bd
       0.05557666 -0.00613445 0.013791972 -0.061225746
000040 45 6c 6f bd 69 67 ee 3d 14 cd b7 bd d6 90 cc 3d
       -0.058452863 0.11640818 -0.089746624 0.09988563
000050 5d 7d ba bd 22 a0 a1 bc df 87 90 bd 2c 59 12 3c
       -0.091059424 -0.019729678 -0.07057165 0.008932393
000060 34 d4 27 bd c6 fa 22 3d b6 31 94 3b 30 9d ff bd
       -0.040973857 0.039789937 0.0045225276 -0.12481153
000070 95 e2 03 3e aa 72 c5 bd 40 59 70 bb e9 03 cf bd
       0.12879403 -0.09641011 -0.003667429 -0.10108168
000080 c0 a8 a0 bc 38 46 9a 3d ae 47 c0 3d f9 31 f2 bd
       -0.019611716 0.075329244 0.09388672 -0.11825938
000090 3e a4 e4 bc 14 6f 9e 3d 35 10 b3 bd 04 70 9f bb
       -0.027910348 0.0773603 -0.087433256 -0.004865648
0000a0 49 8d 39 bd ba 8a 9b bb 10 d6 6a 3d 30 b0 b9 bd
       -0.045300756 -0.004746762 0.057333052 -0.09066808
0000b0 ab 71 7e bd 73 78 94 bc f0 37 45 bd 57 b8 6d bd
       -0.06212012 -0.01812384 -0.04814905 -0.05803713
0000c0 9f 00 b1 bd 42 da 42 3d 4a 20 94 3d 8a 6d 7f 3d
       -0.086426966 0.047571428 0.07232721 0.062360324
0000d0 8b 3c 68 bb 88 4f da 3c a3 84 72 bd 5e 9f d3 bc
       -0.0035436477 0.026649252 -0.059208523 -0.025832828
0000e0 d7 fd dd 3d 49 23 35 bd 81 6e c9 3d 0a 2f 92 bd
       0.10839432 -0.044223104 0.0983553 -0.07137878
0000f0 ef 67 b3 3d 35 e9 36 3d 98 66 40 bd 95 2b b4 bd
       0.08760058 0.044655997 -0.04697284 -0.08797375
000100 72 56 91 3d 6f 94 85 3d 80 e9 ce 3d 2e a0 7d 3d
       0.07096566 0.06522452 0.1010313 0.061920337
000110 fe 88 d0 bb 94 0b a3 3d 6c f7 85 bd 8f 14 89 3d
       -0.006363987 0.07961193 -0.065413326 0.06693374
000120 2a dc 95 3d 9d ee c9 bd e4 92 01 be fe e1 b1 bd
       0.073173836 -0.09859965 -0.1265369 -0.08685683
000130 76 a2 88 bc 5e cc 9c bd 85 4a 85 bd fd 06 67 bd
       -0.01667903 -0.076561674 -0.06508354 -0.05640315
000140 62 3a 57 bc a7 9d 4c bd d1 a8 d8 3d e4 52 c0 bd
       -0.013136478 -0.049955036 0.10579074 -0.0939081
000150 87 65 5d 3d 0d c5 11 3c ff 08 0b bd da b7 03 be
       0.054051902 0.008897078 -0.033944126 -0.12863103
000160 ee 01 a9 3d 7c fc a8 bc 60 63 87 3d f2 c1 47 bd
       0.08252321 -0.020628206 0.06610751 -0.048768945
000170 d9 2e 79 3d 7b 72 ea 3c 96 bc ee 3d 27 6e 12 bd
       0.060835693 0.028619042 0.11657064 -0.03574958
000180 f1 f1 fd 3d eb 20 77 3d ab 36 12 bd 9e b9 b8 3d
       0.12399662 0.060334127 -0.035696667 0.09019779
000190 fd 2f c8 bc 96 4b d8 bd f1 c3 f2 3c 40 5f b6 bd
       -0.024436945 -0.10561292 0.029634448 -0.08904886
0001a0 a6 bc 0e 3d 80 9e 1d bd 63 b4 9f 3c b8 bd c0 bb
       0.034847878 -0.038481236 0.019495195 -0.0058819912
0001b0 d2 8a ab 3c 26 52 a5 3c 79 cf f9 bd 76 1a 8b bb
       0.020940218 0.020180773 -0.121977754 -0.0042450977
0001c0 6c fa f9 bd 3f 2b a7 3c 8c 5c 45 bd 1a c8 80 bd
       -0.12205967 0.020406364 -0.048183963 -0.06288166
0001d0 35 e4 f3 bd 60 72 99 3c 6b 36 82 3c e7 5b a8 3d
       -0.119087614 0.018731296 0.01589509 0.08220654
0001e0 71 91 e4 3d 1d 99 73 bd 44 c9 ca bd cc 10 bd 3d
       0.11160553 -0.059472192 -0.099016696 0.092317194
0001f0 91 62 e1 3c 1b 69 e6 3d 45 52 8e 3d ff f7 34 bd
       0.02751282 0.11250516 0.069492854 -0.04418182
000200 7d 75 ce bd a8 9c 4c b8 21 39 9d bc fc 2b c6 3d
       -0.10081003 -4.8783288e-05 -0.01919228 0.09676358
000210 68 35 c7 bd 84 47 a6 3d 24 7c cf 3d 0d 40 3e 3d
       -0.09726983 0.08119109 0.101311 0.046447802
000220 8e e8 aa 3d e4 2b d9 3d 1e d4 74 bb d9 0f 13 3e
       0.083451375 0.106040746 -0.0037357877 0.14361514
000230 a0 28 ac bd 33 fe c6 bc 43 0b 0a be f6 94 81 3d
       -0.08406186 -0.024291134 -0.13480859 0.0632724
000240 09 49 e0 bd 6e 84 02 be 07 35 ca bc ff 03 51 3d
       -0.1095143 -0.1274583 -0.024683489 0.0510292
000250 f3 a0 b6 3c f3 ed bb 3d df df 37 3d e2 28 ca bd
       0.022293543 0.091762446 0.044891234 -0.09871079
000260 ac c1 0c bc 22 9d 9c 3d 82 47 0e 3e 54 6c ab bd
       -0.008591097 0.07647158 0.13894466 -0.08370271
000270 5e f0 93 3d ad d3 0b be ee 5d d7 3c 8b 64 43 bd
       0.07223581 -0.13654967 0.026289906 -0.047703307
000280 95 7f 30 bd 65 c1 08 bd aa 75 bc 3d 76 9a d2 bd
       -0.04309042 -0.03338756 0.0920213 -0.10283367
000290 ed 64 ac 3d 59 7f e0 bc a2 e2 64 bd 16 8a be bd
       0.084176876 -0.027404474 -0.055880196 -0.093036816
0002a0 f8 3e 3a bd b5 78 27 3c 42 a4 3b bd 97 66 12 bc
       -0.045470208 0.01022165 -0.045810945 -0.008935592
0002b0 ce 7f a2 3d 94 3d 11 be 90 a5 81 3d 1c 74 11 be
       0.07934533 -0.14183646 0.06330407 -0.14204448
0002c0 84 63 53 bd 53 5a a8 bd c4 8f b6 3d 54 39 fb b8
       -0.051608577 -0.08220353 0.0891414 -0.00011979291
0002d0 d3 00 17 3d 4f d6 4e 3d 52 79 b3 3b fc f1 d4 bd
       0.03686602 0.05049735 0.005477109 -0.10397717
0002e0 36 cc 0a 3e 96 9c f2 bd 76 ec 69 3d 1b 98 56 bd
       0.13554463 -0.11846273 0.057110272 -0.052391153
0002f0 d0 fe da 3d e0 8b 05 3b a9 d6 cb 3d 77 a4 86 3c
       0.10693133 0.0020377561 0.099530526 0.016435845
000300 16 b8 bb bb ec 31 70 3d 33 65 03 be ef 41 b6 3d
       -0.005728732 0.05864136 -0.12831573 0.088992946
000310 8e 7b c8 bd 4f 81 ba bc 63 10 ff bd d0 5e d9 3d
       -0.09789191 -0.022766737 -0.124542974 0.10613787
000320 38 ec 62 bc ba 2b ed 3c ee 89 06 3e 8e 36 ef bd
       -0.013850264 0.028951515 0.13138554 -0.11680327
000330 c4 5e 68 bc e1 f1 e7 3d 26 cf d2 3b 2b 20 82 bd
       -0.01418275 0.113254316 0.0064333854 -0.06353792
000340 56 ad c1 3d 64 ea a3 ba 48 13 bb 3d f5 99 eb bc
       0.09456889 -0.0012505767 0.09134537 -0.028759936
000350 cb 5d 1c bd a8 6a e9 bd 47 41 24 bd d1 fc 1f 3d
       -0.038175385 -0.11397296 -0.040101316 0.039059464
000360 ab 0d 84 3d ba 22 06 bd 41 48 a1 3c a3 bd 8d 3c
       0.064479195 -0.03274796 0.019687774 0.01730234
000370 74 24 d3 3d ce 34 66 bd dd be 5d 3d 8d 67 07 3e
       0.10309687 -0.056202702 0.0541371 0.13223095
000380 ad 96 99 bd ad a9 aa bd 49 a2 00 3e 72 4a d9 bc
       -0.07499442 -0.08333144 0.12561907 -0.026524756
000390 a1 1d fc 3d 17 4f d9 3d c8 07 63 bc e2 e6 5a 3c
       0.12310339 0.10610788 -0.013856836 0.013360711
0003a0 83 54 66 bd 99 1a d0 3d 77 73 cd 3d 54 ef e5 3d
       -0.05623294 0.10161323 0.10031789 0.11227289
0003b0 11 e9 0e be b1 a2 a4 bd 1c 39 27 bd 16 06 b4 bd
       -0.13956095 -0.080388434 -0.040825948 -0.08790223
0003c0 4e 6a c1 3d 59 01 58 3d 60 77 b7 3d c1 43 d3 bd
       0.09444104 0.05273566 0.08958316 -0.103156574
0003d0 4e 59 5a 3c 6c 02 80 bd e7 d1 61 bd 0a 5b 04 3e
       0.013326956 -0.06250462 -0.05513182 0.12925354
0003e0 de ce d1 3d 34 bc 05 3e d8 2c 14 3d cb 9f 0c 3d
       0.10244535 0.13060075 0.03617558 0.034332078
0003f0 5e 52 88 bd 99 61 77 bd ca 75 86 bd 62 4c d3 bd
       -0.06656335 -0.06039581 -0.06565435 -0.10317303

lstm.bias_ih_l0 f4 [256]
000000 4a d8 e2 3d da b9 0b 3e bc 65 bc 3d 35 de d5 3d
       0.1107641 0.13645115 0.09199092 0.10442773
000010 9c 9e 94 3d ce 83 c2 bb 94 e0 d1 3b aa 1f 0e 3e
       0.07256815 -0.0059361225 0.0064049456 0.13879266
000020 3f 67 98 3d 80 3a e3 3d 88 41 d4 3d f1 93 08 bd
       0.07441568 0.11095142 0.103640616 -0.033344213
000030 63 b1 02 3e 76 37 ea bd 1e e2 db bb 4c 92 8d 3c
       0.1276298 -0.114363596 -0.006710305 0.017281674
000040 86 0d ee bc 2b 6e b6 3d ed f3 23 bc c8 63 9f bd
       -0.029059183 0.089077316 -0.010006887 -0.07782704
000050 90 27 55 bc aa 4e 98 3d 91 4b 15 3e 86 9c 62 bd
       -0.013009921 0.07436879 0.14579608 -0.055325054
000060 82 95 69 bd 45 14 cb 3c 44 d6 81 3b 7c 03 b6 bd
       -0.057027347 0.024789939 0.00396231 -0.08887383
000070 2e 04 54 bc ea 9c 0a 3e 99 68 ab bc 45 ec 90 bc
       -0.01294045 0.1353642 -0.0209239 -0.017690787
000080 72 61 d2 bd 7e b1 28 bd e2 8f 4a 3d 06 84 ab 3d
       -0.102724925 -0.041184895 0.049453624 0.08374791
000090 26 12 da bc 3c 5d 91 bd 46 60 c5 3d db b9 ed 3d
       -0.026619982 -0.07097861 0.09637503 0.11607715
0000a0 98 6b 20 bd fe 7f 92 3d a9 71 a3 3d 26 4a 92 bd
       -0.03916511 0.07153319 0.07980663 -0.07143049
0000b0 0f d0 d8 bd 6c 40 4f bd ae d9 e1 bc 74 3f 0b 3b
       -0.10586559 -0.050598547 -0.027569618 0.0021247538
0000c0 c9 3f a7 ba 5a 4f ea 3d b6 f6 9b bd 70 61 8a bd
       -0.0012760098 0.11440916 -0.07615416 -0.06756866
0000d0 97 ba 97 bd 09 51 e8 bd 73 69 d4 bd 34 7b c8 bb
       -0.07408636 -0.11343581 -0.10371675 -0.0061182026
0000e0 bc dc 14 3b d6 03 ce 3d 8f 6e 93 bd 75 24 c1 3d
       0.0022714576 0.100593254 -0.07198822 0.09430782
0000f0 aa 57 ac bd 88 d7 5e bd 55 b8 a8 3d 67 9e 15 bd
       -0.08415158 -0.054404765 0.082382835 -0.036528017
000100 e0 65 3e 3d 25 59 cc bd ff e2 8c 3b 80 b9 1f 3d
       0.046483874 -0.099779405 0.004299521 0.038995266
000110 6e 13 ce bd 23 12 1e 3c 7d 02 dd bb fe 18 39 bd
       -0.100623 0.009647879 -0.0067446814 -0.04518985
000120 85 10 08 3e 1f 53 b0 3b e3 de 8f 3b b5 b5 dc 3c
       0.13287552 0.0053810026 0.004390584 0.026942113
000130 18 80 a5 3c 0f 8e df 3d dc 35 d1 bc 0a 51 84 bd
       0.020202681 0.109157674 -0.025538377 -0.064607695
000140 38 0d 0e be 86 df 0c 3d c3 01 8c bd 6f 7b e9 3c
       -0.1387223 0.034392856 -0.068362735 0.02850124
000150 72 74 cd 3d d4 3b ac bd 0d ca 1d bd 2f 93 58 3d
       0.10031976 -0.08409849 -0.03852277 0.05287474
000160 6e a0 5c 3d c9 27 d7 3d 3e 88 6a bd f3 de 1b 3b
       0.053863935 0.10505635 -0.057258837 0.002378401
000170 58 5e b9 3d ed 76 a6 bd 71 26 b5 ba db 46 f0 3d
       0.09051198 -0.08128152 -0.001382066 0.117322646
000180 a9 83 86 3d 29 2c 99 3c 5b e4 29 bd b1 25 21 3d
       0.06568081 0.018697815 -0.041477542 0.039342586
000190 6d 00 3c 3d 88 1a be 3d 8a 90 c6 3d 86 45 8e bd
       0.045898844 0.09282404 0.096955374 -0.06946854
0001a0 e5 29 e2 bb 75 30 b3 bb 67 ec 74 3d c9 b1 81 3d
       -0.006901967 -0.005468423 0.059795763 0.06332738
0001b0 86 ca 0c 3c c3 07 b0 bc 11 7b c6 3d 7c 2f 81 3d
       0.008593207 -0.021488076 0.09691442 0.06307885
0001c0 e7 90 89 3d 34 b6 93 bc 2b aa 01 bd 35 d2 3c bd
       0.06717091 -0.018031217 -0.031656425 -0.046098907
0001d0 b1 d0 1f 3d d9 cb 01 3d 78 ec e1 3d b9 7e b4 3d
       0.039017383 0.031688545 0.11031431 0.08813233
0001e0 46 89 57 3d 96 c3 74 3d cc b1 f3 bd cc 8f 92 3d
       0.05262115 0.059756838 -0.118991464 0.07156333
0001f0 ca 78 82 3d ff ab b9 3c c3 f6 ee bd a7 ba 7b bd
       0.06370695 0.022665022 -0.1166816 -0.061457302
000200 5a 31 f2 3b 66 e8 9f bd 62 37 b1 bd 3f 35 c1 3d
       0.007391137 -0.07807998 -0.086531416 0.09433984
000210 00 31 4c 3b 7b 78 af bd c2 3d 3a 3d dd 4a e8 bd
       0.0031157136 -0.08567902 0.045469053 -0.11342404
000220 b2 5f c5 bd b3 89 b3 bb 8a 12 3f 3d 43 d9 6d bc
       -0.09637393 -0.0054790615 0.04664854 -0.014517131
000230 19 ea 38 bd c1 b7 29 bd 40 0a 02 bd f3 63 96 bd
       -0.045145128 -0.041435007 -0.031748056 -0.073432826
000240 4c fa 92 bd 08 16 74 bd b3 d5 5c 3d f0 6f 11 bd
       -0.071766466 -0.059591323 0.053914737 -0.035507143
000250 28 d2 01 3e 96 21 20 bd 26 f8 89 3c 86 66 cb bd
       0.12677824 -0.03909453 0.01684196 -0.09931664
000260 6c a7 84 3d 0e 6b 6a 3d 3f 89 81 bd 56 da a2 bd
       0.06477246 0.057231 -0.06325006 -0.079518005
000270 7d ba c2 bd c2 b9 29 3c b8 c8 69 3c f6 8b e6 bd
       -0.09508226 0.0103592295 0.0142690465 -0.11257164
000280 3f 26 83 3c ef 3c 4e bd d4 0a df bd 9b 40 ea bb
       0.016009448 -0.05035108 -0.10890737 -0.007148815
000290 c8 e1 e2 bc 98 ea d4 3c 64 9a 98 bd 44 e7 c8 bb
       -0.027695552 0.02599077 -0.07451323 -0.0061310846
0002a0 3e e7 aa bd a9 19 22 bd 4e 50 76 3d 70 8a 90 bd
       -0.08344887 -0.039575253 0.06013518 -0.07057655
0002b0 b4 5f de 3d d8 ee dd 3c fe 23 1a bd 28 0a f6 bd
       0.10858098 0.027091429 -0.03763198 -0.12013656
0002c0 13 2c 84 3c c5 62 d7 3c dc a7 b9 3b e2 72 a6 bd
       0.016134297 0.026292214 0.0056657623 -0.08127381
0002d0 1b 77 2c 3d 7f da ae bd ad d1 55 3d ce 30 d1 3d
       0.042105775 -0.085377686 0.052201916 0.10214387
0002e0 0d 07 95 3d 7a 96 8f bd a4 e6 e3 bd f6 17 5b 3d
       0.072767355 -0.07011123 -0.111279756 0.053489648
0002f0 5a 55 c6 bc 60 c1 42 bd 7e f4 9e bc b4 12 8e 3d
       -0.02421062 -0.047547698 -0.019403692 0.06937161
000300 15 10 3c bc f9 c2 55 3c 59 17 b9 bd 33 a0 9a bd
       -0.011478444 0.013046973 -0.09037656 -0.07550087
000310 cf d4 e4 3d 02 4a 1a bd 8f 48 b5 3d bd 75 4a 3d
       0.111734025 -0.037668236 0.0885173 0.04942869
000320 99 d1 be bd 20 d8 21 bd c3 e7 d5 3c 03 bc 8d bd
       -0.09317321 -0.039512753 0.02611149 -0.06920626
000330 4b fb da bd c6 f9 78 bd a1 93 6e bd fb 05 1e bd
       -0.106924616 -0.060785078 -0.05824626 -0.038579922
000340 40 90 e0 bd b4 97 75 bb 1b 20 4f 3c 5f df 17 bb
       -0.109650135 -0.0037474455 0.012641932 -0.002317391
000350 dd 83 9b bd 83 cc 91 bd 52 ae 0d 3e f2 71 0b bd
       -0.0759351 -0.07119086 0.13836029 -0.034044214
000360 f9 d7 03 bc 69 75 5f 3d 93 9f 10 3e 43 61 c5 3d
       -0.008047097 0.05455533 0.14123373 0.09637692
000370 55 88 05 3e dc 42 52 bb 63 2f dd bd 46 3f ab bd
       0.13040288 -0.0032083308 -0.10800054 -0.08361678
000380 49 26 ed 3c 4e 74 96 bc 6b 92 8c 3c 19 02 de bc
       0.02894892 -0.018366005 0.017159661 -0.02710061
000390 7f 54 c2 bd 51 71 10 3e a5 c3 a5 bd 3e b0 1f bd
       -0.094887726 0.14105727 -0.08093957 -0.038986437
0003a0 9e c1 60 bd ef 5f c1 bd 4f 83 c9 3d 48 46 ec bb
       -0.054872148 -0.09442126 0.09839498 -0.0072105266
0003b0 e0 57 b9 bd f5 18 d7 bd 7f 06 d1 3d 40 4c d4 3c
       -0.09049964 -0.10502807 0.10206317 0.025915265
0003c0 88 62 f1 3c 35 e3 10 3d 09 7b b7 3d d5 a4 9c bb
       0.029465929 0.03537293 0.08959014 -0.0047803917
0003d0 ae 4e 21 3c 48 17 04 be c2 0a b9 bd 86 76 e9 bd
       0.009845419 -0.12899506 -0.09035255 -0.1139956
0003e0 43 66 c6 3d 98 34 98 3c 00 0f 59 bc ee 28 05 3e
       0.096874736 0.018579766 -0.013248205 0.13003895
0003f0 15 66 98 3d 26 d6 07 3e 03 15 a7 3d ff 28 ef 3d
       0.074413456 0.13265285 0.081583045 0.11677741

lstm.bias_hh_l0 f4 [256]
000000 4c 35 e1 3d ff c0 d8 3d ab 48 b0 3d 07 29 dd bd
       0.10996494 0.10583686 0.0860761 -0.10798841
000010 42 aa 55 bd 9d 49 18 3d cd 6b 92 bd 63 17 6b bd
       -0.052164324 0.037179578 -0.071494676 -0.05739535
000020 0d 9b a5 bd 7a 6a 9a bd 7f 42 fd bd d0 a1 3e 3d
       -0.08086214 -0.0753984 -0.12366199 0.046541035
000030 62 eb b7 bc ea 09 ae bd fa ec cd 3d b9 68 79 3d
       -0.022451106 -0.08497985 0.10054965 0.060890887
000040 fc 92 02 bd 72 37 26 3e 29 fe b5 bd ce 81 b9 bd
       -0.031878456 0.16232088 -0.08886368 -0.090579614
000050 29 1a 88 3d 86 47 52 bd a9 f2 0c 3e 52 fe 7f 3d
       0.06645615 -0.05133774 0.13764443 0.062498398
000060 ca 0f 42 bd b4 17 a1 bd 87 5a 22 3d 0b ae 64 bd
       -0.04737834 -0.07865849 0.039637115 -0.055830043
000070 9c 54 de 3c e1 8a de 3c b0 c2 a5 3d af d1 e8 3d
       0.027139954 0.027165832 0.08093774 0.11368119
000080 ac 19 d1 bd a9 36 c8 ba 4b c2 20 3c 64 ab cd 3d
       -0.10209975 -0.0015275079 0.009811948 0.10042456
000090 34 ce 0e be 6f 1f 6c 3b 9d bb 03 bd fd fd 88 3c
       -0.13945848 0.0036029478 -0.032161344 0.016722674
0000a0 a1 ea b9 3b d9 d7 3e 3d 28 aa 95 bc f4 d2 fc 3d
       0.005673722 0.046592567 -0.018269613 0.123449236
0000b0 69 49 4d 3c 52 cf e0 bb 24 9b ac bd a1 85 96 3d
       0.012529709 -0.006860652 -0.08428028 0.073497064
0000c0 ea 71 29 3c 48 d6 61 bd 88 d7 96 3d 1c a5 05 bd
       0.010342101 -0.055135995 0.07365328 -0.032628164
0000d0 68 dd 30 bd 35 87 b2 3d 79 56 88 bd a8 87 fb 3d
       -0.0431799 0.08717195 -0.06657118 0.12281734
0000e0 ec 43 0b 3d 28 a3 97 3d 63 58 86 3d 17 55 66 bd
       0.034000322 0.074041665 0.06559827 -0.05623349
0000f0 44 2e e8 3d b8 b0 21 bc 3f e1 c8 3c 93 03 25 bd
       0.113369495 -0.009868793 0.024521468 -0.04028661
000100 a8 24 4d 3d 96 35 52 3d b7 6b 36 3c 6d 50 53 3d
       0.050083786 0.051320635 0.01113408 0.051590372
000110 30 65 9c bd 04 9c a0 3d 66 fb ba 3d 92 5d 1d bd
       -0.076364875 0.078422576 0.09129982 -0.038419314
000120 7d b9 aa bd 50 f0 00 3e fd 58 b1 3d 2a 4d 27 bd
       -0.0833616 0.12591672 0.08659551 -0.040845074
000130 5b ef fd 3d 77 77 b9 3d 0d c7 e7 3d e0 ce e3 3d
       0.12399169 0.09055989 0.11317263 0.11123443
000140 56 27 ab 3d b1 ae 0c bc d2 e8 a3 3d 5e dd 99 bd
       0.08357112 -0.008586572 0.08003391 -0.075129256
000150 86 ca e9 3c 7c f4 f3 bc 3f b7 8c 3d 1f 84 c9 bc
       0.028538954 -0.029779665 0.06870889 -0.024599133
000160 01 b4 0b 3d 58 af 30 3d a9 c4 82 3d b3 90 1a 3d
       0.034107212 0.04313597 0.06385166 0.037735652
000170 0d 70 a6 bb 3b 24 3d 3b ac 8a 76 3d 14 26 7d bd
       -0.0050792755 0.0028860706 0.06019084 -0.061803892
000180 85 e9 df 3d 8e 64 94 3d 48 f9 a4 3d 61 d4 5f 3d
       0.10933212 0.07245742 0.08055359 0.0546459
000190 4b 49 51 3d ee 9f 2d 3c d6 e0 ec 3d 20 92 b1 3d
       0.05109529 0.010597212 0.115663216 0.08670449
0001a0 f3 fd 0d 3e 0e 94 53 3d 49 f0 4e bd 2f c8 ad 3d
       0.13866405 0.051654868 -0.050522123 0.084854476
0001b0 28 a2 85 3b cd 89 ae 3d db 6a 80 bd b1 49 5c bc
       0.0040781684 0.08522377 -0.06270381 -0.013445304
0001c0 63 2c 8f 3d 2d fa 9d 3d 52 74 de bc a2 c2 bb bd
       0.06990888 0.07713733 -0.027155075 -0.09167983
0001d0 63 74 05 3e 61 09 fb bd de 7a bd 3d 75 f4 78 bd
       0.1303268 -0.12257648 0.09251951 -0.060780007
0001e0 d2 60 e8 3d c8 25 05 be b2 92 a4 3d 07 0e df bc
       0.11346592 -0.13002694 0.080357924 -0.027228368
0001f0 61 07 12 bc 57 f9 84 3d c7 17 89 bd 19 b2 00 3e
       -0.008912892 0.0649287 -0.06693988 0.12567939
000200 56 9d 7d 3d a0 6c bc bd e2 2f 02 3e 5f 4e 80 3b
       0.061917625 -0.09200406 0.12713578 0.0039155926
000210 40 35 90 3d 03 4b 94 3d cf fa 31 3c 85 a2 b7 3d
       0.07041407 0.0724087 0.01086302 0.08966545
000220 86 d2 a1 3d 98 90 6f bb 46 d3 48 bd 04 21 6b bc
       0.07901482 -0.003655469 -0.04902961 -0.014351133
000230 fe 11 0f bd 03 62 07 3d de f1 e9 bd 63 72 e1 bb
       -0.034929268 0.033052456 -0.11423086 -0.006880091
000240 c8 4a 2f 3d a9 18 a9 3d 3f 6d 71 bd 6e ce a1 3d
       0.042795926 0.08256657 -0.058942076 0.079007015
000250 57 de a3 3d 42 53 ae 3d 81 8f 60 bd 84 2d b0 3d
       0.08001392 0.08511974 -0.054824356 0.086024314
000260 36 74 82 3d 59 59 01 3e ec c3 00 3e 9b 6f f8 3c
       0.06369822 0.1263174 0.12574738 0.030326655
000270 c9 8d 0f 3c 78 f1 dc bd aa fa 9c 3d 0b 2e f5 3c
       0.008761832 -0.10788244 0.07664998 0.029929182
000280 b1 79 e6 3d a7 0a 6b bd 6d 36 94 bd a9 ea f3 bd
       0.112536795 -0.057383206 -0.072369434 -0.11909992
000290 90 af e9 3c 5c fa 42 bd 20 04 d4 3d 70 39 a2 bd
       0.028526098 -0.047602043 0.10352349 -0.079211116
0002a0 8c 9a a1 bd e1 0e 3e bd 2f f3 e7 bd ba 9f ef bd
       -0.078908056 -0.04640091 -0.113256805 -0.11700387
0002b0 3a e0 c7 3d c4 2b 85 bd 8e 02 16 bd 5c cb a9 3d
       0.09759565 -0.06502488 -0.03662353 0.08290741
0002c0 97 91 da bd fc 5a db 3c a0 40 9b 3d 8a 97 7b bd
       -0.106723 0.026776783 0.075806856 -0.061423816
0002d0 fd 0e 37 3d 2b 79 c9 ba e3 99 1b bd 4a 2f 9c bd
       0.04469203 -0.0015371194 -0.037988555 -0.07626207
0002e0 9d b0 66 3d be d7 1c bd f8 8f 04 3e 51 1c 7d 3d
       0.056320775 -0.038291685 0.12945545 0.061794583
0002f0 a4 7e 3c bd ba d0 e1 3b e2 69 ee 3c 3b 49 e0 bc
       -0.04601921 0.006891337 0.029103223 -0.027378669
000300 ae bf 88 ba 1b 2b 81 bc f0 6f 51 bd ea 12 37 3d
       -0.0010433102 -0.015767625 -0.051132143 0.044695772
000310 8d ae 0c bb ee c0 f5 bc 41 78 a2 3d 85 f6 48 3d
       -0.0021466345 -0.029999223 0.07933093 0.049063224
000320 7a 42 9b 3d e8 2a 7e bc f5 31 90 bb 9c 18 47 3d
       0.07581039 -0.015513159 -0.0044004866 0.048607454
000330 8e 89 37 bd 82 09 e5 3d 77 57 2d 3d ed 46 9e 3d
       -0.044808917 0.11183454 0.04231974 0.07728372
000340 30 52 b9 3d 12 97 18 bc 8d c0 6f 3d 22 de c7 3c
       0.09048879 -0.009313362 0.05853324 0.024397913
000350 ef 72 40 bd e3 de cb 3d 38 88 23 3d 96 74 2e bc
       -0.04698461 0.09954622 0.03992483 -0.010647913
000360 a4 85 d8 3d 53 53 37 bc 67 70 61 bc c0 32 2b bd
       0.10572365 -0.0111893 -0.013759709 -0.041796446
000370 60 b5 89 bd 8f bc 33 bd cd 9b e4 bc 09 af 26 bd
       -0.06724048 -0.043880995 -0.027906323 -0.04069427
000380 13 85 54 bd 39 c5 9d bc 8c 12 cc bd 23 d3 97 bc
       -0.051884722 -0.019259082 -0.09964475 -0.018533295
000390 41 11 c8 bd 3e 9b f0 bc 11 05 f3 bd 81 f0 a3 3c
       -0.09768916 -0.0293709 -0.11866201 0.020012142
0003a0 a7 f2 b4 bd 8d 9a ee 3d 46 c8 f6 3c 67 3f a8 bd
       -0.08835345 0.11650572 0.030124795 -0.08215218
0003b0 08 c7 8f bd f1 43 77 bc d3 9a b9 3d 88 d8 01 3e
       -0.07020384 -0.015091882 0.090627335 0.12680256
0003c0 19 58 db bc 2b f2 d7 3c 7d 75 a2 3d 50 fc e0 bd
       -0.026775407 0.026360592 0.07932565 -0.10985625
0003d0 e0 7d 85 3d cf 5b 6c bd ac fb ad bd 5a db a9 3b
       0.065181494 -0.057704743 -0.08495268 0.0051836194
0003e0 74 f7 00 3d 81 75 cb bd da 12 34 bd 08 bb 0d 3e
       0.03148599 -0.099345215 -0.04396329 0.13840878
0003f0 66 7b 82 3d 31 46 42 3d a3 56 ce 3d 91 8c 81 bd
       0.06371193 0.04743022 0.100751184 -0.06325639

lstm.weight_ih_l0_reverse f4 [256, 4]
000000 e8 9f a7 3d 86 d0 f1 bb 0a 37 87 39 ea 57 9e bd
       0.081847966 -0.0073795943 0.00025790214 -0.07731612
000010 85 e4 c0 bc 5b 48 11 3d c8 58 a0 bd 37 c7 0b bd
       -0.023546467 0.035469394 -0.07829434 -0.034125533
000020 65 39 9c bc 90 f1 df 3a d0 39 a4 bd ef 9d 65 3c
       -0.019070337 0.0017085541 -0.08018839 0.014014705
000030 4a 44 84 3c 2f 39 5c 3d d3 fc 0d be c4 c6 05 3d
       0.016145844 0.053765472 -0.13865976 0.03266026
000040 b7 8d c6 bd ec 35 06 be 1e d7 6c 3d b0 bf cf 3c
       -0.09694999 -0.13106507 0.05782234 0.025359958
000050 6d 39 10 3e db 57 b0 3d ce b9 b7 3d bd 6c 9e 3d
       0.14084406 0.08610507 0.08970986 0.07735584
000060 5b 68 1b bd 2c ad 92 3d 39 8c d8 bd 9c a6 0f bd
       -0.037941318 0.07161936 -0.1057362 -0.035071
000070 36 6b a6 bd 72 fb c3 bd 2a 81 be bd 54 52 16 3d
       -0.081259176 -0.09569444 -0.0930198 0.036699608
000080 c6 de b1 3d cc fc a2 bc 2f 38 8b bd 0e b2 d7 3d
       0.08685069 -0.019895934 -0.067978255 0.10532008
000090 62 fa 40 3d 77 9e c8 bd 73 e6 a5 3d ca 51 85 bd
       0.047113784 -0.0979585 0.08100595 -0.06509741
0000a0 fa b0 3c 3d 7a 3a 45 bd f4 ab ec 3d 77 92 d1 3d
       0.046067216 -0.04815147 0.11556235 0.10233014
0000b0 d4 75 d7 bd eb d4 b4 3d b0 3a dc 3d bd 0d 04 3d
       -0.10520521 0.088296734 0.10753381 0.032239664
0000c0 b9 d7 b0 bc a5 8a d1 bc eb bf cf bd 55 62 a6 bd
       -0.02158724 -0.025578806 -0.10144027 -0.08124224
0000d0 f5 35 e7 3c 0f 9d 83 3c 23 5c d9 bd 21 94 84 3d
       0.02822397 0.016066102 -0.10613277 0.06473566
0000e0 d6 60 c1 3b b9 06 b5 3d d4 56 e8 3d b3 c7 f0 3d
       0.0059014363 0.08839173 0.11344686 0.117568396
0000f0 f0 9c c0 bd 6b 1c 7f bd d6 45 69 bd f2 51 db bc
       -0.094049335 -0.06228296 -0.056951366 -0.026772473
000100 b7 6f fd bd 1e ff 9b 3d 57 b3 29 3d 45 13 d3 3b
       -0.123748235 0.07617019 0.041430797 0.006441506
000110 bd 9a 86 bd c4 a7 7c 3d 9f 76 c5 3c e2 c4 a3 bd
       -0.06572483 0.06168343 0.024104415 -0.07996537
000120 97 20 28 3e 90 70 ce bd cf d9 a4 3d 7b 14 be bd
       0.16418682 -0.10080063 0.08049356 -0.0928125
000130 c1 5b 10 bd 9b 98 79 bd 96 12 9d 3c 90 b4 94 3d
       -0.035243753 -0.06093655 0.019173902 0.07261002
000140 3d e7 b4 3d 00 d9 b0 3d 3b 77 8b bd 20 54 a8 3d
       0.08833168 0.086351395 -0.06809851 0.082191706
000150 36 ba f8 3c 7c ad 3c 3d 78 b8 4b 3d 8b bf c6 bd
       0.03036223 0.046063885 0.04973647 -0.09704503
000160 a4 82 bf 3d 16 57 be bd 22 44 ad bd f4 2b 03 3d
       0.093510896 -0.09293954 -0.08460261 0.03202434
000170 eb a4 a4 3b 2b 4b 9a 3c 81 ad 8e bd de f8 4b 3d
       0.0050245426 0.018834671 -0.06966687 0.049797885
000180 f2 0e d6 3d 3e 5f d2 3c 13 74 7f bd 13 39 83 3d
       0.10452069 0.02568018 -0.062366556 0.064073704
000190 64 da b0 bd fc cf cc 3d 87 5d a4 bd 05 47 ba 3d
       -0.08635405 0.10000607 -0.080256514 0.09095577
0001a0 9f 79 f1 3c 34 e0 a5 bd 8b 1d b3 3d d4 86 d1 3d
       0.029476939 -0.08099404 0.08745869 0.102307945
0001b0 02 32 6d 3d ad b4 b9 bd 24 60 e1 3d f8 54 dd bd
       0.05790902 -0.09067664 0.110046655 -0.10807222
0001c0 f3 69 55 bc 84 f2 60 bd 6b 9c 6b 3c dd 10 11 bd
       -0.013025749 -0.05491878 0.014380555 -0.035416473
0001d0 c7 d9 02 be 8c 2b 5d bd 39 e4 b4 3d f5 18 a8 bd
       -0.12778388 -0.053996608 0.088325925 -0.08207885
0001e0 95 d3 f1 bd f8 bd ac 3d 8b c0 ea bd 83 28 20 3c
       -0.11807934 0.08434671 -0.11462506 0.009775284
0001f0 b7 82 a4 bd 0b ed 07 bd e7 c2 da bd d4 27 10 be
       -0.080327444 -0.033185046 -0.10681706 -0.14077693
000200 3a 34 01 be 9d 8f 88 3c b1 68 9f bd 76 f7 00 3e
       -0.12617579 0.016670043 -0.0778364 0.12594399
000210 c4 87 12 3e 6f e0 6a 3d 1d 36 7e bd 85 78 b2 3c
       0.14309603 0.057342943 -0.062063325 0.021785984
000220 14 25 f5 3d 01 c7 e6 bd 98 6c 38 3d 76 ec 96 3d
       0.11969963 -0.11268426 0.045025438 0.0736932
000230 22 10 0b bd c7 ed 41 bc e9 a2 62 3b 88 76 78 bd
       -0.033950932 -0.011836476 0.0034581965 -0.060659915
000240 8d 08 e7 3d e3 27 5e bd 54 1a c5 3d 25 28 42 bc
       0.11280928 -0.054237258 0.09624162 -0.0118503915
000250 f2 d6 c5 3c 21 ec 28 b9 be 70 ad 3d ad 91 ea 3c
       0.024150345 -0.00016109693 0.084687695 0.028633917
000260 31 90 cb bd 9f 2a 0e 3d 74 82 aa 3d 1b 35 a9 bd
       -0.09939612 0.034708615 0.08325663 -0.08262082
000270 dc 5c c5 3b 86 96 d8 3d 2b d2 dc bd b6 47 53 bc
       0.0060230326 0.10575585 -0.10782274 -0.012895515
000280 0a 09 c7 bd 1c 04 d3 bd 8e 83 84 3d 8e 3a 13 be
       -0.09718521 -0.10303518 0.064704046 -0.14377806
000290 65 d9 9e bc f6 c0 2e 3d 98 89 d8 bd ee f5 0d be
       -0.019390771 0.04266449 -0.10573119 -0.13863346
0002a0 01 a8 93 bd 40 91 e5 bd fc 80 94 3d e1 16 43 bd
       -0.072097786 -0.11209345 0.07251164 -0.04762924
0002b0 91 84 c5 bd e8 b5 5e bc 65 07 e1 bd 84 46 e6 bd
       -0.09644426 -0.0135931745 -0.109877385 -0.112439185
0002c0 09 44 0d 3e 9f d6 dd bd fa 6e a7 bd a1 3d 1c 3d
       0.13795485 -0.10831951 -0.08175464 0.03814471
0002d0 89 c3 ff 3c fa de 95 bd f1 d9 03 be a9 1d c5 bc
       0.031221168 -0.0731792 -0.12876107 -0.024061995
0002e0 82 d8 e2 bd 41 0f 10 bd 56 48 a7 3a 84 1c 6b bd
       -0.11076452 -0.035170797 0.0012762647 -0.05740024
0002f0 51 58 99 bc 23 71 ea 3c aa 23 52 3d 74 b4 33 bd
       -0.01871887 0.0286184 0.051303543 -0.043873265
000300 90 0b 7d bd 3b 7e 83 bd 18 9a 96 3d 81 1b 3e bd
       -0.061778605 -0.06420561 0.0735361 -0.04641295
000310 82 c6 67 3d 44 a1 0c 3e 23 bb 1e bd 49 29 c4 bd
       0.056585796 0.13733393 -0.038752686 -0.09578187
000320 65 35 a3 bb f1 b0 00 3e 19 42 fe 3c a6 68 5f 3d
       -0.0049807304 0.12567498 0.031037377 0.05454316
000330 26 f0 87 bc 63 7d f3 3c 74 c3 0f be e9 25 7d 3c
       -0.016594004 0.029722875 -0.14039403 0.015450933
000340 d4 7e 95 bd 0e 2f 6e bd bf cf 9f bd 81 a5 98 bd
       -0.07299581 -0.058150344 -0.07803296 -0.07453442
000350 e1 28 8e 3d c7 ea 65 3d cd 4f 5b bd be fe 0b bd
       0.06941391 0.056132104 -0.0535429 -0.034178488
000360 ec b6 2a bc 38 3c 30 bd b6 3e 08 bd d4 05 db bb
       -0.010419589 -0.04302618 -0.03326293 -0.0066840444
000370 ac 2d 76 bc 0e 42 db bc 84 fb ce bd f9 b0 de bc
       -0.015025537 -0.026764896 -0.101065665 -0.027183997
000380 57 4d aa bd c6 4d 3f 3d 2c f6 1d bd f8 46 5a 3d
       -0.08315533 0.04670503 -0.038564846 0.053290337
000390 62 25 1f 3d 02 36 a9 bd ce 88 e2 3d 13 01 63 bd
       0.03885401 -0.08262254 0.1106125 -0.055420946
0003a0 32 8d e4 bc 7b dc 08 bd 03 51 7f bd cb f2 81 bb
       -0.027899358 -0.03341339 -0.06233312 -0.0039657108
0003b0 8b 83 31 bd 09 17 ba bb 67 99 85 3d 6d df 83 bd
       -0.04333834 -0.0056790155 0.065234 -0.064390995
0003c0 12 15 2a 3b 45 35 20 3b 87 ab 00 3c f0 38 3a b8
       0.00259525 0.0024445814 0.007853395 -4.4398883e-05
0003d0 f3 cb c0 3d 14 53 53 bd 61 1a 37 bd 1d 86 fb 3d
       0.094139 -0.0515929 -0.04470289 0.122814395
0003e0 e5 79 e2 bc 15 de 93 bd e8 ca 2a bd 81 12 17 3e
       -0.027646014 -0.07220093 -0.041697413 0.14753152
0003f0 72 25 40 3c f7 7e b2 bd d1 2a 92 bd 9b 6f ea 3d
       0.011727678 -0.08715623 -0.07137073 0.11447068

lstm.weight_hh_l0_reverse f4 [256, 64]
000000 64 6c ff bd c8 1e 33 bd 30 6b 8d 3c 84 50 a6 bd
       -0.12471846 -0.043730527 0.017263025 -0.08120826
000010 24 52 ee bd 28 fc a9 3c e4 3e 75 3d 1c a2 28 3d
       -0.11636761 0.02075012 0.05987443 0.041170225
000020 96 ed d6 3d ac b3 07 bd 04 55 25 3d 6a 75 ba bd
       0.10494535 -0.033130333 0.04036428 -0.09104426
000030 3c be d1 3d a8 e0 41 bd ac 2c cc bd 7c 8c 51 3d
       0.102413625 -0.04733339 -0.09969458 0.051159367
000040 f8 27 fd 3c e4 a4 cb 3d 34 85 0d bd ce 62 8a bd
       0.030902848 0.0994356 -0.03455086 -0.06757127
000050 5a f9 c9 3d 0a 8c b1 bd e0 68 b5 3b c0 f0 92 bd
       0.09862013 -0.086692885 0.0055361837 -0.07174826
000060 c4 e0 da 3d 4c a5 ee 3d cc 58 f8 3d 80 1a d2 bd
       0.10687402 0.116526216 0.12126312 -0.10258961
000070 80 ee 92 bc 5a 69 9d 3d 40 76 32 bd 90 4a 32 bc
       -0.017935991 0.0768611 -0.043569803 -0.010882035
000080 4a 3b c3 bd 40 66 c4 3d 9a 91 e7 3d e6 3e bf bd
       -0.09532793 0.09589815 0.11307068 -0.09338169
000090 64 b5 d9 3d 40 e5 e7 3d dc 76 0a bd 30 61 13 3d
       0.10630301 0.11323023 -0.03380476 0.035981357
0000a0 42 fb cf 3d 30 b1 29 bd 40 42 e9 bd b2 82 b0 bd
       0.101553455 -0.041428745 -0.11389589 -0.08618678
0000b0 b8 50 20 3d 10 bb 84 3d f0 04 e9 3c 38 b2 5c bd
       0.03913948 0.06480992 0.028444737 -0.0538809
0000c0 d8 5a 1a 3d 4c c0 3a bd ee c4 f5 3d 48 91 0a bd
       0.03768429 -0.045593545 0.12000452 -0.033829957
0000d0 96 fd ee bd dc ff 23 3d 56 87 a6 bd e0 29 56 3c
       -0.116694614 0.04003893 -0.08131282 0.013071507
0000e0 98 3a 81 3c b0 5c 59 bc 20 57 cb bb f4 66 3f bd
       0.01577501 -0.013266727 -0.0062054545 -0.046729043
0000f0 90 e6 dd 3d 8c 9a 8a bd 10 d2 70 3c 02 a9 f1 bd
       0.10834992 -0.06767759 0.01469852 -0.11799814
000100 5c 60 d2 3d d2 39 86 3d 70 6a 5f 3c 16 ef c9 bd
       0.10272285 0.06553997 0.0136362165 -0.09860055
000110 38 be bb 3c cc 1e f2 bd 8c 8c 00 3d 34 49 48 bd
       0.022917852 -0.1182228 0.031384036 -0.048897937
000120 20 16 1e bc d4 2d 8f bd bc 65 f9 bd 86 7f 8e 3d
       -0.00964883 -0.06991163 -0.121776074 0.06957917
000130 b0 91 b4 3d 28 6f 80 3d e0 bd dd bb ca 00 cb 3d
       0.0881685 0.06271201 -0.0067670196 0.0991226
000140 d0 b7 4c 3d 06 20 ca 3d 90 83 7f bd 1e 31 95 bd
       0.049979985 0.09869389 -0.062381327 -0.07284759
000150 10 a3 43 bc 50 da 3e 3c c0 c1 2a bc fa ec 93 3d
       -0.011940733 0.011648729 -0.01042217 0.07222934
000160 e6 e3 f1 bd c4 ce 7f 3d a0 62 82 bb 52 3b c4 3d
       -0.11811046 0.062453046 -0.003979042 0.09581627
000170 40 9a a5 bd b2 ac d8 3d c0 31 58 3c 64 0e 65 3d
       -0.080860615 0.10579814 0.013195455 0.055921927
000180 f0 f2 ce bd 6a 5a c2 bd de 99 bb bd a8 4e e4 bc
       -0.101049304 -0.09489901 -0.09160207 -0.027869537
000190 0e e6 ab 3d 28 48 d5 bc ec d7 02 bd 94 06 dd bd
       0.08393489 -0.026035383 -0.0319442 -0.1079227
0001a0 54 17 40 bd 2e f9 fe 3d 72 09 92 bd c0 ee 7a 3c
       -0.046897247 0.12449871 -0.07130708 0.0153157115
0001b0 78 cd bc bc a8 01 fa bc 00 60 e1 bd cc a5 91 bd
       -0.023047194 -0.030518368 -0.11004639 -0.07111701
0001c0 8e b4 e5 bd 66 05 b8 bd 30 77 c0 3c 90 4a bf bc
       -0.11216079 -0.08985405 0.023494333 -0.023350984
0001d0 cc ed bd 3d 28 6f bc 3d 68 c4 18 3d 0a b2 85 bd
       0.09273872 0.09200889 0.037296683 -0.06528099
0001e0 9c 79 fd 3d a0 25 a9 bd f0 ed ac bd 30 9a ce 3c
       0.12376711 -0.082591295 -0.084438205 0.025220007
0001f0 70 11 42 3d bc 0d de bd 50 bb ed 3d b8 ed ac 3d
       0.04737991 -0.108424634 0.11607993 0.08443779
000200 50 d3 8a bc ce 90 fb 3d dc c6 64 3d ae 46 db 3d
       -0.016946465 0.12283479 0.05585371 0.107068405
000210 ba 0e 98 3d 26 b3 b9 3d 6e 50 b9 3d fc fc d2 3d
       0.07424684 0.09067373 0.09048544 0.10302159
000220 d4 e2 49 bd 70 82 32 3d 48 83 48 3d cc f7 7e 3d
       -0.049288586 0.043581426 0.048953325 0.062248036
000230 de ef c5 bd 30 f7 00 bd 50 af a0 bc 5c 1b 01 3d
       -0.09664892 -0.031485736 -0.019614846 0.031520233
000240 80 aa 15 3c 5c 09 c1 bd 1e 5e a2 3d 7c 90 3b 3d
       0.009134889 -0.09425613 0.07928108 0.045792088
000250 04 98 b6 3d 2c fb cd 3d ba fb c5 3d e4 20 fe bd
       0.089157134 0.10057673 0.09667154 -0.12408617
000260 98 90 d1 bc aa 75 fe 3d e8 9e bd bd f0 7e 86 bc
       -0.025581643 0.124247864 -0.092588246 -0.01641795
000270 fe f7 99 3d f0 11 1a 3d 6c d5 49 bd 0c 31 da 3d
       0.07518004 0.037614763 -0.0492758 0.10653886
000280 98 25 98 bd 80 17 dc 3d ec 90 20 3d c0 34 f2 3b
       -0.074290454 0.1074667 0.03920071 0.007391542
000290 40 a0 61 3b ae 94 c2 bd 08 e4 70 bd 54 71 0c bd
       0.0034427792 -0.09501015 -0.058811218 -0.034287766
0002a0 30 72 97 bc 30 88 6e bc 40 f1 d0 bd 26 ce f7 3d
       -0.018487066 -0.014558837 -0.10202265 0.120998666
0002b0 e2 74 82 3d 42 66 9b 3d 32 d4 98 bd b8 06 68 bd
       0.0636995 0.075878635 -0.07462348 -0.056647032
0002c0 30 60 45 3d e2 9c d8 3d de 01 cc 3d 78 4e c3 bc
       0.048187435 0.10576798 0.09961294 -0.023841128
0002d0 d8 a9 90 3c 20 4d 0e bd f0 4f d2 3d 22 e9 96 bd
       0.017659113 -0.03474152 0.10269153 -0.07368685
0002e0 f0 61 2b 3d c8 da e7 bd c0 af be bc 74 a0 72 3d
       0.041841447 -0.11321026 -0.023277164 0.05923505
0002f0 5c a2 41 3d c0 92 36 bb 38 e8 23 bd 40 d4 59 3d
       0.04727398 -0.0027858466 -0.040016383 0.053180933
000300 28 ae a7 3d 4c bf 97 3d a0 bf ed 3c 00 6d 6a bd
       0.081875145 0.07409534 0.029022038 -0.057232857
000310 b4 ce 84 3d 70 9c 38 bd ce 26 eb 3d 18 de 11 3d
       0.06484738 -0.045071065 0.11482011 0.035612196
000320 b0 67 c6 3c 48 00 38 bd ce 2f eb bd ac 71 79 bd
       0.024219364 -0.044922143 -0.114837274 -0.06089942
000330 6e b8 c3 bd 54 70 13 3d da fe aa bd 52 a8 ea 3d
       -0.095566615 0.035995796 -0.0834939 0.11457886
000340 2e da b2 bd 3a 3d ea bd 70 ef ee bd a2 cf be 3d
       -0.08733021 -0.11437459 -0.11666763 0.093169466
000350 00 d6 5b ba ec f6 69 bd 60 bb 77 bc dc f0 22 bd
       -0.00083860755 -0.05712025 -0.015120357 -0.039780483
000360 28 f6 3d 3d 28 5e eb bd 94 d6 8b 3d c8 9e cb 3c
       0.04637733 -0.11492568 0.06828037 0.024855986
000370 60 a9 c9 3d 70 ab 2b bd c8 18 43 3d 7e 8c df 3d
       0.09846759 -0.041911542 0.047631055 0.10915469
000380 2c 3b c4 bd f0 2a 87 3c 60 d2 b2 3b 50 72 eb bd
       -0.09581599 0.016499966 0.0054572076 -0.11496413
000390 80 7b cd bb 4e 41 f2 bd c0 f4 ef bd 80 ad 59 3d
       -0.006270826 -0.11828862 -0.11716604 0.053143978
0003a0 b4 56 4d bd 7a 3c ae bd aa 0a 93 bd 68 4c 44 bd
       -0.050131515 -0.08507629 -0.071797684 -0.04792443
0003b0 80 b9 aa bd 30 7d 65 3c ec 77 67 3d ec d3 cc 3d
       -0.083361626 0.014006898 0.05651085 0.100013584
0003c0 c0 9a eb bc 80 51 09 bc ce bc db bd d0 68 95 bc
       -0.028760314 -0.0083812475 -0.10729371 -0.018238455
0003d0 a4 56 35 3d a8 eb 59 bd 14 03 ae 3d 7c 91 8a bd
       0.04427208 -0.053203255 0.08496681 -0.0676603
0003e0 a0 09 a4 bc dc 4f 9a 3d 70 9f f5 3c 04 be 93 3d
       -0.02002412 0.07534763 0.029983252 0.07213977
0003f0 48 4a a3 3d 24 0e ab 3d a0 7f 13 bd 38 73 57 3d
       0.079731524 0.083523065 -0.036010385 0.052600116

lstm.bias_ih_l0_reverse f4 [256]
000000 59 3d 68 bd ba c0 23 bd 3c 60 d0 3d 17 9a 7d bd
       -0.05669913 -0.03997872 0.10174605 -0.06191453
000010 a6 48 d6 bc b5 6d c1 3d 76 70 62 3d c2 23 ca bd
       -0.026157688 0.09444753 0.055283032 -0.098701015
000020 9e 76 ab 3d 8e b2 dd 3a 37 ac 16 bc 56 36 74 bc
       0.08372234 0.0016914175 -0.009196333 -0.014905533
000030 a3 55 14 3d aa d7 73 bd 3e 43 02 bd bc 77 ed bd
       0.036214482 -0.059531845 -0.03180241 -0.11595103
000040 26 86 ec 3d 74 4a a5 3d a5 ab 99 bd ed 97 b5 3d
       0.11549024 0.080708414 -0.07503442 0.08866868
000050 7c bb a9 3d dd ad 04 3e 83 88 40 bd 9d 2b 08 3d
       0.08287713 0.12956949 -0.047005188 0.033244718
000060 8c 7a 9c 3b ca c2 68 3d 01 dc 59 3b 16 e3 de 3d
       0.004775351 0.05682639 0.0033242705 0.10883157
000070 55 ca 6d 3d 86 87 2b bd 97 e5 61 bd f8 68 9e bd
       0.058054287 -0.041877292 -0.055150595 -0.07734865
000080 d8 b9 46 3d d1 45 d9 3d f3 66 fa bd 33 53 06 3d
       0.04851708 0.106090195 -0.12226667 0.03279419
000090 41 37 d6 bd 87 f2 4c bd a2 29 cd 3c ba ff 6b bd
       -0.104597576 -0.05003598 0.025044266 -0.057616927
0000a0 3a 24 4b 3d 94 fc 5b bd fc 3e b4 bd 32 46 ff bc
       0.049595095 -0.053707674 -0.08801076 -0.031161401
0000b0 43 31 97 bd 6f d2 8a bd c3 66 92 3c 88 21 d4 3a
       -0.07382443 -0.06778418 0.017871266 0.001618431
0000c0 a8 bb bc bd 42 ea e5 3d ea ff ad 3d 4c 89 68 bd
       -0.0921548 0.11226322 0.08496077 -0.05677156
0000d0 e1 ff 9b 3d 38 ff 2c bd 73 a4 a3 bd 25 44 9d bd
       0.076171644 -0.042235583 -0.079903506 -0.07679013
0000e0 36 55 4e bd c7 47 87 3d 51 02 8b 3c 7e f3 bb bc
       -0.050374232 0.06605487 0.016968878 -0.022943255
0000f0 81 93 7b bd 81 9c 88 bd 40 60 d2 bc 76 e2 97 3d
       -0.061419968 -0.06670476 -0.025680661 0.07416241
000100 d0 5f cd bd 70 8f 30 3d 88 0d 1d bd 98 1a af 3d
       -0.100280404 0.043105543 -0.038342983 0.08549994
000110 96 04 e4 bd 54 1a f8 bd f8 96 e4 bd f2 1e be 3d
       -0.11133687 -0.12114397 -0.111616075 0.09283246
000120 32 e3 ea 3d 48 da 10 3d 8e 55 ff 3d 78 d3 c6 3c
       0.11469115 0.03536442 0.1246749 0.024270758
000130 18 25 e8 bc ac 7d 2e 3d 82 2b fc bd 2c a7 4c bd
       -0.028338 0.04260032 -0.12312986 -0.049964115
000140 d0 be 05 bc de f4 e0 3d 96 32 81 3d a2 c1 cd 3d
       -0.008163169 0.10984205 0.063084766 0.10046698
000150 3c 4e 8e bd 86 a4 ca 3d 00 69 a0 3a a0 d2 ab bd
       -0.06948516 0.098946616 0.0012238324 -0.08389783
000160 80 bd d7 ba bc 83 e5 bd 58 d0 c0 3d 8e 4c bd 3d
       -0.0016459674 -0.11206767 0.094147384 0.09243117
000170 2e b1 c7 bd 50 0c b7 3d 72 f2 b3 bd d2 83 8a 3d
       -0.09750591 0.08937895 -0.08786477 0.06763424
000180 66 ea 94 bd 68 4d 94 bc 40 2f 13 bd 5c c2 b6 3d
       -0.072712705 -0.018103316 -0.035933733 0.0892379
000190 c2 ee e6 3d 5c 7d f3 bd 68 db cb bd 46 09 df bd
       0.11276008 -0.11889145 -0.09953958 -0.10890441
0001a0 d4 2f 84 bd 68 4a c4 bc 10 3e 7d bd 68 38 f2 3c
       -0.06454435 -0.02396126 -0.061826766 0.029567912
0001b0 54 87 80 3d d2 d0 be bd 5c a8 23 3d 28 17 72 3d
       0.06275812 -0.09317173 0.039955482 0.059104115
0001c0 4c 06 68 bd 24 57 40 bd 1a 31 f6 3d 10 de df bd
       -0.05664663 -0.046958104 0.12021084 -0.10931027
0001d0 c4 94 41 3d 00 bf 7d ba 58 c8 8e 3d 0e 35 d9 3d
       0.047261015 -0.00096796453 0.06971806 0.106058225
0001e0 10 b6 65 3c a0 10 ad 3b 4c 15 44 3d 6e 84 ab bd
       0.014020458 0.005281523 0.047871873 -0.08374868
0001f0 3e 9e 9d bd 58 70 59 3d 98 5a b8 3d 8c 6e e1 bd
       -0.07696198 0.053085655 0.090016544 -0.11007413
000200 bc ee 6d 3d 69 c3 7c 3d 24 f8 83 3d 9d 2f 90 3d
       0.058089003 0.061709795 0.064438134 0.070403315
000210 87 1b 4c bd 76 56 cf bd f8 ee 78 bd 9a e1 63 3d
       -0.04983094 -0.10123913 -0.060774773 0.055635072
000220 03 9c 8e 3d ce b6 9c 3d 2a 6d 39 bd 16 6c 87 bd
       0.069633506 0.07652055 -0.045270123 -0.06612413
000230 f4 8a e0 bc e3 9e c4 3d 11 69 c4 bd 88 a7 98 3d
       -0.027410008 0.09600618 -0.09590352 0.07453829
000240 4e 80 cc bc bf 04 55 3d 49 a7 e4 3d 1f 18 26 3d
       -0.024963524 0.05200648 0.111647196 0.040550347
000250 5c 16 0f be 70 46 63 3c 29 e7 b6 3d b1 cc 38 bd
       -0.13973373 0.013871774 0.08930809 -0.045117084
000260 a8 90 01 bd 72 7c 08 bd 5c 13 e5 bd 1f cf b4 bc
       -0.031632096 -0.033321805 -0.11185333 -0.02207142
000270 7f 94 02 3e 92 2c 3b 3d e3 0b 07 bd a5 1c 00 bb
       0.1275196 0.045696802 -0.03297032 -0.0019548323
000280 a2 b6 ca bd a1 2e af bd 50 52 66 bc de 8a 1a 38
       -0.09898116 -0.08553816 -0.014057711 3.684579e-05
000290 d2 f5 fa bd c4 43 ac bd 13 b2 9b bd 57 cc 50 3d
       -0.12253918 -0.08411363 -0.07602324 0.050976124
0002a0 86 b1 7e 3b be ea 57 3d ae 05 d1 bd ff b2 da bc
       0.0038863136 0.052714102 -0.102061614 -0.02669668
0002b0 ce a3 60 bd 50 cf f3 3d a1 a1 cb bd 78 77 23 3d
       -0.054843716 0.11904776 -0.09942938 0.039908856
0002c0 4b a7 ce 3d 29 e1 dd 3d 07 2b 9f bd 58 2c bb bd
       0.10090502 0.108339615 -0.07771879 -0.09139317
0002d0 40 78 c1 3d 2e 4d 8b 3d 78 af fd 3d 6e ab ef bd
       0.09446764 0.0680183 0.12386984 -0.117026195
0002e0 75 89 c1 bd d4 f9 da 3d 59 13 69 3d 0e 4f 57 3d
       -0.09450046 0.10692182 0.056903217 0.052565627
0002f0 02 76 43 bd 16 30 c3 3d 71 40 c0 3c e7 90 ed bb
       -0.047719963 0.09530656 0.023468228 -0.0072499397
000300 8e 45 75 3d 07 8c 14 3c f3 d8 d9 bc 28 e1 13 3d
       0.059880786 0.009066588 -0.026592707 0.036103398
000310 3f fe 46 bd ef 22 a7 3d 00 93 6a 3d e9 f5 80 3c
       -0.04858231 0.0816096 0.057269096 0.01574226
000320 e2 f6 7f bd 46 88 a3 bd 29 d3 bc 3d b0 c1 2a 3d
       -0.062491305 -0.079849765 0.09219963 0.04168862
000330 7e 18 ae 3d 08 1f de 3d 32 17 b2 3c 53 76 8c bc
       0.08500765 0.108457625 0.021739576 -0.017146265
000340 e5 c2 ba bd a6 05 9b bd 68 9c 83 bd 43 c5 01 3d
       -0.091192044 -0.07569437 -0.064263165 0.031682264
000350 da 8d 83 3d be 20 e5 3d 48 ff cd 3d bc e6 78 bd
       0.064235404 0.11187886 0.10058457 -0.06076692
000360 6b 77 96 bd bb a0 a4 3d 6f ff 99 bc 25 28 15 3d
       -0.07346996 0.080384694 -0.018798558 0.036415238
000370 61 ee d2 3d fe b3 46 3d db d7 df 3d 15 8a 56 3d
       0.102993734 0.048511498 0.10929843 0.05237778
000380 3d 90 f5 bb 93 14 d3 bd b2 8e c1 bd 05 40 37 3c
       -0.007494001 -0.103066586 -0.09451045 0.011184697
000390 ff 62 07 3c b4 da 34 bd ab 88 c8 3d 13 1d 9a bd
       0.008263349 -0.044153884 0.09791692 -0.07525077
0003a0 4d ff 9b 3c 72 03 87 bd 7e 19 56 3d 4a b4 67 3c
       0.019042635 -0.06592454 0.052270405 0.014142105
0003b0 9b d9 dd bc bf 68 49 3d 7c fa eb bd 55 3d 68 3d
       -0.027081301 0.04917216 -0.115223855 0.056699116
0003c0 0a bd e8 bd df 95 b7 3d f7 a9 54 bd 7e a1 bb 3d
       -0.11364181 0.089641325 -0.051919904 0.091616616
0003d0 2d 3d 56 3c b3 9b 10 3e 0b 68 9d bd 80 b8 ff 3c
       0.013076109 0.14121895 -0.0768586 0.031215906
0003e0 4c d9 9b 3d 46 f4 d6 bd b0 48 dd 3d d8 09 5a 3d
       0.076098055 -0.1049581 0.1080488 0.053232044
0003f0 ea 35 d0 bd e6 2c a8 bd 62 c3 e8 bd 04 8e 6b 3b
       -0.10166533 -0.08211689 -0.11365391 0.0035942802
