data_20sec_label_balanced/models/best_model.pt (torch, 339573 bytes, 27 tensors)

conv1.weight f4 [32, 4, 5]
000000 47 87 6d bd 5b fa 3f be 49 3b 46 3e bc 76 46 be
       -0.05799034 -0.18747847 0.19358553 -0.19381231
000010 40 64 39 3e e6 fd f0 3d d7 bf e4 3d d8 54 e7 3d
       0.18104649 0.11767177 0.11169403 0.112954795
000020 3c 0d dc bc e6 ed 6d bd 18 6d 55 3e 21 c2 19 3e
       -0.02686178 -0.058088206 0.20842397 0.1501546
000030 da 5a a1 3c 5b e9 63 3e 17 a3 00 3e fa 8c 0d 3d
       0.019696642 0.22256987 0.12562214 0.034558274
000040 d3 9a 37 3d db f4 4e bd 57 a1 35 3e a6 bf d4 bd
       0.044825386 -0.05052648 0.17737328 -0.103881165
000050 08 51 77 bd 17 0c 58 3e 87 da e7 3d 4d b7 42 3e
       -0.06038001 0.21098362 0.11320978 0.19015236
000060 86 d9 ee bc d1 b4 49 bd 6b aa 58 3e 70 3b c4 bd
       -0.029156458 -0.049244706 0.2115876 -0.09581649
000070 db 23 27 be e0 87 18 3e a6 2e 14 bd af 66 c6 bd
       -0.16322272 0.14895582 -0.0361773 -0.09687554
000080 6b 62 84 3d 57 a0 06 be 37 03 47 3e 85 26 bf bd
       0.06464084 -0.13147102 0.1943482 -0.09333519
000090 a1 89 63 be 63 7d b1 3d 37 20 59 3e 7a 99 2a be
       -0.2222047 0.08666494 0.21203695 -0.16660109
0000a0 41 9f fb ba df 23 74 bd fc 96 bc 3c 86 b3 2a 3d
       -0.0019197242 -0.05960452 0.023021214 0.041675113
0000b0 e1 ea 76 3e be 27 9d bd 71 d8 31 3e 00 f6 8f 3d
       0.24113037 -0.07673596 0.17367722 0.07029343
0000c0 da dd 6f 3d 81 1e c1 bd c4 34 8f 3d 10 17 e7 bd
       0.058561184 -0.09429646 0.06992486 -0.11283696
0000d0 8d d9 3d be f7 7f e8 bd 84 90 14 3d b0 d1 5f be
       -0.1854002 -0.11352532 0.036270633 -0.21857333
0000e0 56 e2 13 be 74 98 62 bc 64 f8 4d 3e 37 a0 c6 bd
       -0.14441809 -0.013830293 0.20114285 -0.09698527
0000f0 72 c4 af 3d 23 7d 4d bc 1c b9 f4 bd 93 47 b3 bd
       0.08582391 -0.012542042 -0.11949369 -0.08753886
000100 72 d2 d4 bd d6 ca 96 bd 4f 0f 2b 3d d8 3c 80 bd
       -0.10391702 -0.07362907 0.041762646 -0.06261605
000110 08 71 2d be 10 64 20 3e 9b ae 3e be 90 f8 00 be
       -0.16937649 0.15663171 -0.18621294 -0.12594819
000120 86 54 19 3d c3 ef 43 be 4c 29 f7 3d a3 a3 ce bc
       0.037434123 -0.1913443 0.12068424 -0.025224512
000130 c2 4d ad bd ef 27 74 3d 2b 4b ee bb 48 fb d4 3d
       -0.08462097 0.059608396 -0.0072721443 0.103994906
000140 ca 82 40 be 21 88 8d bd 84 81 47 be 6d 43 ae 3c
       -0.18799892 -0.0691073 -0.19483 0.021272385
000150 12 53 05 be ef df 42 3c 7d bc 44 3e fa e9 5e 3d
       -0.1301997 0.01189421 0.19212528 0.054422356
000160 d4 b8 9a bd c8 3a 35 be 54 a8 6f 3d 28 e2 7c bd
       -0.075547844 -0.17698205 0.05851014 -0.061739117
000170 91 8e 5b 3e c8 fb 9d 3c 49 94 35 be 52 e3 86 bd
       0.21441104 0.019285098 -0.17732348 -0.06586327
000180 82 67 4d 3e 9e 02 4e be 6a 94 d5 bd a0 94 73 be
       0.20059016 -0.20118186 -0.10428698 -0.23787165
000190 10 03 cc bd 1c 74 d2 bd 8f a4 fe 3c 7d d3 2b be
       -0.099615216 -0.10276052 0.031084327 -0.16779895
0001a0 4b 08 9e 3d 8f b6 55 be bf 39 43 bd 6c 0f 4b be
       0.077164255 -0.20870422 -0.047662493 -0.19830102
0001b0 06 9d 66 bc ba 03 50 3e bb f0 d8 3d 86 dd c5 bd
       -0.014075523 0.20313922 0.10592791 -0.09661393
0001c0 85 aa 39 be e8 7b f6 3d 77 4d 49 3e 4e 84 4a 3e
       -0.18131454 0.12035352 0.19658457 0.19777033
0001d0 ab a0 9f bd c9 1a 6f bc 03 70 e5 3c 59 37 ce 3d
       -0.07794317 -0.014593788 0.028007513 0.100691505
0001e0 6a 1b 17 3e 6e 41 cf 3d 90 00 0a be 69 b7 6f 3e
       0.14756551 0.101199016 -0.13476777 0.23409809
0001f0 9d e1 4b 3e f4 79 57 be 99 07 9b 3d 7e 45 a9 bd
       0.19910283 -0.21042615 0.075698085 -0.08265208
000200 a2 3b b5 3d 3f 9c 26 be af 3a 4b be 1f 74 80 3c
       0.08849265 -0.1627054 -0.19846605 0.01568037
000210 5c 98 4e be 2d ff 68 3e 4d e1 4c be f7 c1 99 bd
       -0.20175308 0.22753592 -0.2000782 -0.07507699
000220 1e 33 ae bd 66 af 57 3e da f6 19 3e 08 3a ee bc
       -0.085058436 0.21063003 0.15035573 -0.029080406
000230 8e 47 0b 3e ed 07 dd 3d 7d 13 75 3e c9 3e a8 bd
       0.13601515 0.10792527 0.23933215 -0.082151
000240 68 96 0a 3e 38 d0 0d be 4e 75 4f be 81 59 a2 3d
       0.13533938 -0.1384896 -0.20259592 0.07927228
000250 49 cf 9a 3c 69 f4 bb 3c d5 a9 03 3e b2 08 1a 3e
       0.01889767 0.022943692 0.12857755 0.1504238
000260 13 ab 66 3e ad 58 11 be 4a a9 0c be d3 75 f1 3c
       0.22526197 -0.14193983 -0.13736454 0.029475128
000270 eb 2b 27 3e 2b fd ea bd 9f 55 81 bd e1 98 4f 3d
       0.16325347 -0.11474069 -0.06315159 0.050682906
000280 b0 9d 92 3d fc e9 33 3d ad cf 11 bd 25 2c c7 bd
       0.07158983 0.043924317 -0.035598446 -0.09725217
000290 d7 86 11 bd d5 29 60 bc 67 36 12 bd 7b 73 0b bd
       -0.035528984 -0.0136818485 -0.035696413 -0.034045678
0002a0 dc 91 2c be 7e 26 84 3c 2d 35 2c be ea f4 22 3e
       -0.16852516 0.016131636 -0.1681716 0.1591374
0002b0 d8 dc 89 bb a6 5e 50 3e dd d5 2d be 9c c1 34 3d
       -0.004207235 0.20348606 -0.16976114 0.044129953
0002c0 1f 9f 71 3d 20 c9 3d be 00 3c bb bd ad 2f 02 be
       0.05898964 -0.18533754 -0.091423035 -0.127135
0002d0 74 67 33 3e 2c 64 3e bd 05 9e 9a bd 9a 00 ed bd
       0.17519933 -0.04648225 -0.07549671 -0.1157238
0002e0 49 b8 67 be 46 3e 0b 3e a2 7e 5e 3e bb c9 ed bd
       -0.22628893 0.13597974 0.21727994 -0.11610743
0002f0 65 bb 58 bd 18 b7 1a be ba c6 17 3e c7 03 0c 3e
       -0.05291309 -0.15108907 0.14821902 0.13673316
000300 d9 92 0f 3e 5d 61 fd bd 1f c5 ec bd b4 39 b1 3d
       0.14020862 -0.12372086 -0.11561035 0.08653584
000310 09 a0 be bd 94 ee 34 bc 71 da 17 3e 40 a8 4b bb
       -0.09307868 -0.01104321 0.14829423 -0.0031075627
000320 85 13 51 be d3 23 04 3d d8 d7 05 be 3f 98 04 3c
       -0.20417602 0.032260727 -0.13070619 0.008092939
000330 69 e4 ab 3d 6f 34 31 bd 42 76 ee bd 9a e3 3f 3e
       0.08393175 -0.043262895 -0.1164365 0.18739167
000340 77 e3 d7 3d ce bc e7 3d 41 fb 87 3d 79 4b 38 3c
       0.10541432 0.113153085 0.0663972 0.011248463
000350 ba 7c a9 3c e1 cb dc 3a 0f 93 ab bd e2 e0 6b bd
       0.020689357 0.0016845429 -0.083776586 -0.05758751
000360 bf 45 f8 bd f4 d1 d6 bd 50 23 24 3e 03 4a 6c be
       -0.12122678 -0.10489264 0.16029096 -0.23075108
000370 dc 82 45 3d fd bb cc 3d e1 74 3e be e0 22 2f be
       0.0482205 0.099967934 -0.18599273 -0.17103148
000380 bc c6 02 be f7 99 f6 bc 06 22 82 bd fc 3f 3b 3e
       -0.12771124 -0.030102713 -0.06354146 0.18286127
000390 bf b3 f5 3d e4 81 5a be d8 39 22 be d5 27 5d 3e
       0.119971745 -0.21338612 -0.15842378 0.21597226
0003a0 13 ab 18 be 2a 0e 2d be 65 13 72 3d 4c 0d 32 be
       -0.1490901 -0.16899934 0.059100527 -0.17387885
0003b0 12 c1 e9 bd 72 f7 13 be ce 4f fb 3d db 31 e6 3d
       -0.11413778 -0.14449862 0.12271081 0.11239978
0003c0 2e 12 64 bd 84 3a cd bc 8b 23 5a be 8f ed 8c bd
       -0.0556814 -0.025052316 -0.21302621 -0.06881248
0003d0 76 82 1c 3d d5 ac 4f 3e 1d 14 19 be c8 9e 86 3d
       0.038210355 0.20280774 -0.14949079 0.06573254
0003e0 d4 f7 be 3d f5 1e 09 be 4d 61 8d 3d b1 0e 12 be
       0.09324613 -0.13390715 0.06903324 -0.14263417
0003f0 70 9e 74 bd e6 0d 02 be db 94 35 3e 06 85 0b 3e
       -0.05972141 -0.12700614 0.17732565 0.13624963

conv1.bias f4 [32]
000000 2b 25 df bb 73 2d 12 be da 30 c1 3d 7d ff e5 3d
       -0.0068098507 -0.1427515 0.09433146 0.11230371
000010 ae 7a 20 3e 2d 71 08 be 1e 9f 27 3e 7f b4 18 be
       0.15671799 -0.13324423 0.16369292 -0.14912604
000020 0f c5 f1 3d d3 87 b5 bd 00 ec 11 be 42 89 4c 3e
       0.11805164 -0.08863797 -0.14250183 0.19974235
000030 6f 82 ef bd 99 37 03 be 95 42 e0 3d b7 1a 0d 3e
       -0.116948 -0.12814178 0.109501995 0.13779722
000040 14 3f 0a 3d 86 b0 3e bd 05 fa d7 bd a9 cc af 3c
       0.033751562 -0.046555065 -0.10545734 0.021459894
000050 ed 64 77 bd 72 16 c3 3d 83 40 2b be 82 68 12 bd
       -0.060398985 0.095257655 -0.16723828 -0.035744198
000060 e8 7c 72 3d 5a 82 89 bb b9 92 c4 3d 56 ce ae bd
       0.05920115 -0.0041964473 0.095982976 -0.08535449
000070 6e a6 5e be 06 69 22 bd f3 bd 85 3d 31 45 83 bd
       -0.21743175 -0.03965094 0.065303706 -0.064096816

bn1.weight f4 [32]
000000 94 ea 81 3f 94 60 7e 3f 32 86 80 3f 05 4f 83 3f
       1.0149713 0.99366117 1.0040953 1.025849
000010 89 00 80 3f df 98 82 3f de 44 7e 3f b7 83 80 3f
       1.0000163 1.0202903 0.99323833 1.0040196
000020 db cf 7d 3f b6 c1 7d 3f 25 a3 7d 3f 29 3d 80 3f
       0.9914529 0.99123704 0.99077064 1.0018665
000030 28 5f 80 3f 29 d8 7d 3f d2 4d 81 3f ba 4c 80 3f
       1.0029039 0.9915796 1.0101874 1.0023415
000040 11 75 80 3f b9 2c 81 3f e6 40 81 3f 65 85 80 3f
       1.0035726 1.0091773 1.009793 1.0040709
000050 45 88 79 3f de 2e 80 3f 03 b5 7d 3f eb 61 80 3f
       0.97473556 1.0014303 0.99104327 1.0029882
000060 6f f3 7e 3f 0a c5 7c 3f 64 2f 80 3f fe 52 7f 3f
       0.995902 0.9873816 1.0014462 0.9973601
000070 27 ea 80 3f 80 02 80 3f 57 20 81 3f 35 a7 7d 3f
       1.0071458 1.0000763 1.0087994 0.9908326

bn1.bias f4 [32]
000000 02 c5 57 bb 2f a7 5c 3b 1f 59 71 3b 3c 69 9c bb
       -0.0032923822 0.0033668985 0.0036826802 -0.004773287
000010 03 58 62 bb bf a7 0a 3b 29 ce 86 3c 40 d7 12 3c
       -0.0034537322 0.0021157113 0.016455727 0.008962452
000020 d2 40 90 bc f3 a9 b6 bb 39 d4 9b bc 1b 04 b5 3b
       -0.017609034 -0.0055744587 -0.019022094 0.005524171
000030 2a dc 94 3b 49 04 da bb 73 05 a8 bb 5b 06 e5 ba
       0.004542847 -0.006653343 -0.0051276027 -0.0017473208
000040 59 28 58 bb 05 db fe 3b 4b b7 73 bc 08 e9 8c 3a
       -0.0032983033 0.007777574 -0.014875243 0.0010750601
000050 2e ea 90 bc c0 86 98 39 8b 06 e7 bb 43 23 60 3c
       -0.01768979 0.00029092096 -0.0070503405 0.013680282
000060 47 76 9b 3b 32 9f cb bb 69 bf fe 3b de be 4b bc
       0.0047443244 -0.006214046 0.0077742827 -0.012435643
000070 2a 18 7e bb a1 bc 01 bb 37 a0 f1 3b 48 29 4b ba
       -0.0038771727 -0.001979627 0.0073738354 -0.0007749987

bn1.running_mean f4 [32]
000000 7a bd 07 bc 66 1a 11 be 59 fb bf 3d f5 c2 e1 3d
       -0.008284921 -0.14170226 0.09374113 0.11023513
000010 52 7e 20 3e 2d 81 0b be d2 69 28 3e 94 60 17 be
       0.15673187 -0.13623495 0.16446617 -0.14782935
000020 f3 5a f2 3d df f2 b3 bd 45 fe 11 be c8 ef 4b 3e
       0.118337534 -0.08786558 -0.14257152 0.19915688
000030 33 40 ee bd be 4d 03 be a8 38 e1 3d 49 d9 0b 3e
       -0.11633339 -0.12822625 0.109971344 0.13657106
000040 fc f8 0b 3d b2 74 41 bd e9 23 db bd 12 1d b1 3c
       0.034172997 -0.04723043 -0.10700209 0.021620307
000050 98 e9 7d bd c5 b3 c1 3d c1 94 2d be 58 3c 12 bd
       -0.06199035 0.094581164 -0.16951276 -0.03570208
000060 b1 8c 73 3d 49 0f a2 bb 1a a3 c9 3d 7c db ad bd
       0.059460346 -0.00494567 0.09845562 -0.08489129
000070 c8 06 5d be 41 26 21 bd 95 d5 86 3d 0f 80 83 bd
       -0.21584618 -0.039343122 0.06583706 -0.064209096

bn1.running_var f4 [32]
000000 f1 20 ee 3d 04 59 18 3e 45 14 c8 3d 5e 97 eb 3d
       0.11627377 0.14877707 0.09769491 0.115034804
000010 00 07 1f 3e 54 92 0a 3e 64 3a 76 3e 6b bc 02 3e
       0.15530014 0.13532382 0.24045712 0.12767188
000020 b4 7c 2f 3e da cb ae 3d 17 27 8c 3d bb ce 3c 3e
       0.17137414 0.08534975 0.06843393 0.18438236
000030 0a 11 15 3e eb 5a c9 3d a1 6b e0 3d 12 3d e1 3d
       0.14557281 0.09831794 0.109580286 0.10997976
000040 1b 99 fb 3d c8 c5 49 3d a1 fd 23 3e 7d 70 d7 3d
       0.12285062 0.049260885 0.1601472 0.10519502
000050 45 f5 24 3e 42 b4 1f 3e 37 00 34 3e 10 ef 01 3e
       0.16109188 0.15596107 0.17578207 0.12688851
000060 88 71 b3 3d b3 a2 e2 3d 6d 0f 41 3e c0 b2 13 3e
       0.08761889 0.11066189 0.1885354 0.14423656
000070 17 69 ca 3d cb bc 0e 3e c3 b6 d2 3d 63 f6 c9 3d
       0.098833255 0.13939206 0.10288765 0.09861448

conv2.weight f4 [64, 32, 3]
000000 55 3d b6 bd e3 c8 a9 3d e2 e4 9b bc c6 1b 42 3d
       -0.08898417 0.08290269 -0.019030038 0.047389768
000010 08 78 8f bc 73 8e 80 3c fa c3 97 3d 8f dd 8c 3c
       -0.01751329 0.015692925 0.074104264 0.017195491
000020 c0 f6 2e 3d 17 a4 de bc 8a ca 9c bd fd 1e de bc
       0.042715788 -0.027177854 -0.07655819 -0.027114386
000030 c7 48 89 bd 66 e0 d4 bd 9f 40 4d 3d 30 b5 60 bd
       -0.06703334 -0.10394363 0.050110456 -0.054860294
000040 99 d9 bd bd a8 fc da bb 80 af 44 3d 9f 97 bd bc
       -0.09270019 -0.006682951 0.048018932 -0.023143588
000050 8b 93 56 3d b3 93 37 bd 5c 2c 85 bc 9b 43 6e bd
       0.0523868 -0.04481859 -0.016256504 -0.058169942
000060 64 b0 93 3d e3 62 77 bb 1a 39 74 bc 5c 2d 7a bd
       0.07211378 -0.003774815 -0.014906192 -0.061078414
000070 a2 58 be bd 2a 8f 9d bc ee 91 95 3d c0 81 ce bc
       -0.09294249 -0.019233305 0.073032245 -0.025208354
000080 a6 e9 bb 3d ad f8 99 3c 06 e2 04 3c 6a 94 6d bd
       0.09175424 0.018795336 0.008110529 -0.058002867
000090 cb 78 ac bd 22 3f 64 bd 98 34 6d 3d 8d 0a 85 bc
       -0.08421477 -0.05572427 0.057911485 -0.016240383
0000a0 9c af 8b bd 30 b9 b0 bb 52 e2 a1 3b 49 72 1a 3d
       -0.06820604 -0.00539317 0.0049403096 0.037706647
0000b0 a3 b1 a8 bd 84 57 c6 bd 52 24 8b bb b4 8b 88 bd
       -0.082370065 -0.09684661 -0.004246273 -0.06667271
0000c0 41 35 d2 bd 5e 77 c5 bd 64 0a 24 3d 5e 78 23 bd
       -0.102640636 -0.09641908 0.04004897 -0.039909713
0000d0 5b 48 9a bd 58 b1 db 3d 5d 73 86 3d 81 f7 73 bd
       -0.07533332 0.10727185 0.065649725 -0.05956221
0000e0 f5 e1 ca bd bf 75 93 39 b0 d4 c0 3d 37 88 a2 bd
       -0.09906379 0.00028125753 0.09415567 -0.07936137
0000f0 c9 54 8e 3d 70 f4 bd bb c5 eb a9 3c 04 0c 1e bd
       0.06949765 -0.0057969615 0.020742306 -0.038585678
000100 1c 6e 74 bc f0 78 7a 3d 8d ea f7 bc 01 65 ab bb
       -0.01491883 0.06115049 -0.03026321 -0.0052305465
000110 dd 08 9a bd 06 60 50 bd a9 64 65 bd 10 6c 3e bd
       -0.07521222 -0.050872825 -0.0560042 -0.046489775
000120 3f a4 dd bc dc b6 36 3c da 90 96 bd e4 ad 95 bd
       -0.027055858 0.0111519955 -0.07351847 -0.07308558
000130 28 7c 0a bd a9 8d 76 bd b6 25 9a bd 35 c2 d1 bb
       -0.03380981 -0.06019369 -0.07526724 -0.006401325
000140 14 c7 35 bd a2 a8 aa bd f8 14 53 3d b7 8f a4 bd
       -0.04437931 -0.083329454 0.05153367 -0.08035224
000150 ad 25 39 bd ae 14 8e 3d 04 d5 e4 bd f3 d6 93 bb
       -0.045201946 0.06937538 -0.11173442 -0.004511708
000160 c9 49 32 3d be 8e a0 bc bf 44 a2 3d 1f b4 b2 3d
       0.0435274 -0.019599315 0.079232685 0.087257616
000170 fe 5a d1 3c ab bd ad 3d 3e 2a 70 bd a8 e5 8b 3c
       0.025556084 0.08483442 -0.058634035 0.017077282
000180 4b 66 a7 bd 63 f9 41 3d c6 08 40 3c 32 dd 5f 3d
       -0.08173808 0.047356974 0.011720842 0.054654308
000190 5f b0 36 3d 4a ae 5e bd fb 5c 4c bd 77 b2 09 bd
       0.044601794 -0.054365434 -0.04989336 -0.033617463
0001a0 f8 73 5c 3b 62 99 7c bc ab ad 87 bd 95 2e c3 bc
       0.0033638459 -0.015417429 -0.066249214 -0.023825923
0001b0 88 04 24 3d 36 f2 2c bd 85 08 f0 3b 05 42 e3 3c
       0.040043384 -0.042223178 0.0073252344 0.027741442
0001c0 01 9c 2e 3d 06 82 e5 bb 20 08 0d bd fd cd 92 3d
       0.042629246 -0.0070040254 -0.034431577 0.071681954
0001d0 ff 6a c7 3d 39 44 3c 3d f7 76 95 3d c9 bc bb 3d
       0.09737205 0.0459635 0.07298081 0.09166867
0001e0 93 34 15 bd 77 4d a7 bc f6 b5 84 3d 5b 68 93 3d
       -0.03642709 -0.02042268 0.06480019 0.071976386
0001f0 f4 06 72 3d d2 1b 27 3d a8 28 79 3c c9 f0 30 bd
       0.059088662 0.040798016 0.015207447 -0.04319838
000200 cc b0 ad bd f9 b4 24 bd b1 2c 49 3c 8a df 95 3c
       -0.08480987 -0.04021165 0.012278722 0.018295068
000210 2b 67 52 bd 45 bd a5 bc f3 47 9e bb d9 95 a2 3d
       -0.05136792 -0.020231852 -0.0048303544 0.079387374
000220 8c 1c 34 bd 36 44 c8 3c f7 41 53 3d 16 4b 5f bd
       -0.043972537 0.024446588 0.05157658 -0.054514967
000230 a0 7f 9f 3d f4 1f 23 3d a2 ea 52 3d a4 f2 a2 bd
       0.077880144 0.039825395 0.051493295 -0.07956436
000240 f3 b3 a4 bd 23 fb 05 3d 56 d5 11 3b b6 e0 14 bc
       -0.08042135 0.032710206 0.0022252402 -0.009086778
000250 3d 7e a4 3d 06 ef bc bd 15 15 97 bd 61 4b 41 3c
       0.080318905 -0.092252776 -0.07377068 0.011797757
000260 cd 6a 36 bc a6 90 b9 bc d7 e6 cb 3d ed b9 f2 bc
       -0.011133862 -0.022651982 0.099561386 -0.029629672
000270 4e 73 4c 3d 7b 54 bd 3c 48 4c 58 bd 14 16 4c 3d
       0.04991465 0.023111572 -0.052807122 0.049825743
000280 59 5b 37 bc 0a 81 df 3a f3 84 88 bd 0f 5b a5 3d
       -0.011191213 0.0017052006 -0.06665983 0.08074009
000290 d9 f1 6e 3d 55 f0 c2 bd cf fd 36 bd 74 c5 36 bd
       0.058336113 -0.09518496 -0.044675644 -0.0446219
0002a0 a5 62 a0 bd e8 21 81 bd 84 6e 0f bc 34 70 fe bc
       -0.07831315 -0.06305295 -0.008754376 -0.031059362
0002b0 09 13 40 bd 95 d2 a8 3d 04 d9 a5 bd 33 92 4d bd
       -0.046893153 0.0824329 -0.08098033 -0.050188255
0002c0 da cd 02 bd a9 ad 84 bd c4 d2 97 3c 9a 33 dc bc
       -0.031934597 -0.064784355 0.018533118 -0.026880074
0002d0 ad 19 88 3c c5 14 f0 3c 4b 51 51 bd 66 5a b1 3d
       0.016613806 0.029306779 -0.051102918 0.0865982
0002e0 32 7c a5 3d bc d6 1a 3d 31 18 e9 3d 16 3a db 3b
       0.08080329 0.037802443 0.11381567 0.006690274
0002f0 25 bb 2c 3d cf 2e 88 3d b4 10 96 3d f3 02 76 ba
       0.042170662 0.06649553 0.073274046 -0.0009384595
000300 63 e1 34 bc ce 4e 33 3d d4 b0 17 3d 79 d7 68 3b
       -0.0110400645 0.043776326 0.03703387 0.0035528822
000310 90 c7 65 bd 3c 5e ad 39 a3 c9 12 bc 05 54 66 3d
       -0.05609852 0.0003306734 -0.008959207 0.05623247
000320 3c 47 5b 3d 8f 1c a8 3d bf 6d d1 3d bd b3 a3 3d
       0.05353473 0.08208572 0.102260105 0.07993267
000330 58 02 9f bd a7 30 23 3d b6 27 bb 3d 05 6b 70 3d
       -0.07764119 0.03984132 0.09138434 0.05869581
000340 5f a6 ca 3c 93 cd 00 bd be b6 aa bd 6f da 84 bd
       0.024737535 -0.03144605 -0.083356366 -0.064869754
000350 cf 44 c3 3d ae b9 06 bd 06 40 a1 bd bd 9c 8e 3d
       0.095346086 -0.03289192 -0.078735396 0.06963489
000360 68 2f 94 3d 09 e6 62 3c d8 02 c7 3d 1a d6 0b 3c
       0.072356045 0.01384879 0.09717339 0.0085349325
000370 89 40 84 bb 1a 04 b2 bd e5 03 cf bd 21 59 aa bd
       -0.0040360135 -0.086921886 -0.10108165 -0.08317781
000380 4c 4f aa bd 00 f9 91 3d 05 2d 74 3d 87 52 13 bd
       -0.08315906 0.07127571 0.059613246 -0.035967376
000390 03 36 55 bc 3c da bd bd d1 cc b7 3d 40 a3 09 3d
       -0.013013366 -0.092701405 0.089746125 0.033602953
0003a0 af f6 be 3c dd 3b 0d bc fe 00 36 3d 08 2f 9e bd
       0.023310987 -0.00862023 0.04443454 -0.07723814
0003b0 10 a9 40 bd bf 62 b8 bd 5c df 14 3a 5b 5c 69 3d
       -0.04703623 -0.09003209 0.0005679035 0.056972843
0003c0 61 6a fc bc 05 3c c9 bd 70 11 70 bd 7e 31 8b bd
       -0.030812444 -0.09825901 -0.05861038 -0.06796549
0003d0 f8 e6 a0 bd 07 29 87 bc a5 8e b9 3c 8e d2 2f 3c
       -0.07856554 -0.016499056 0.022651026 0.0107313525
0003e0 d9 16 07 bd 8f c0 30 3d 8c d8 92 3d 75 da dd bd
       -0.032980774 0.04315239 0.07170209 -0.10832683
0003f0 67 ad b8 3d 9a 73 cb 3d 32 12 b5 3d 18 bb fd bc
       0.09017449 0.099341586 0.08841361 -0.030973002

conv2.bias f4 [64]
000000 47 41 bd bd c0 ef 79 3d 8c 34 30 bc 73 76 c0 3d
       -0.09240966 0.06101966 -0.010754716 0.093975924
000010 20 6f 07 bd 1b e4 ae bc 1d ab 50 3c 0f 0f c2 3d
       -0.03306496 -0.021349004 0.012736109 0.094755284
000020 ce 21 4d 3d 2b e9 c5 bd 62 96 c5 bd c2 b9 49 bd
       0.050081067 -0.09663614 -0.09647824 -0.049249418
000030 27 55 1c 3d 2d 4c cc 3d c6 71 c7 bd 4c 45 86 3d
       0.038167145 0.09975467 -0.097384974 0.06556186
000040 0e c5 ab bd 8f 68 9b bc 8c 8b 8d bd 6b 35 3e 3d
       -0.083871946 -0.018970756 -0.06911382 0.046437662
000050 9e 52 93 bd 87 12 c4 bd 9e 4b 56 3d 38 4c bf bd
       -0.07193492 -0.09573846 0.052318208 -0.093407094
000060 9b 35 6a 3d b6 34 c2 3d b6 46 53 bb 30 ef e3 3c
       0.05718003 0.0948271 -0.0032238192 0.027824014
000070 f9 0b 5a bd d6 20 85 bd 28 7e 8a bd a0 89 ce 3d
       -0.053234074 -0.065004036 -0.06762344 0.10084844
000080 8f 48 64 bd 10 ff bc 3d 6b b5 21 3d 39 f7 9c bc
       -0.05573326 0.09228337 0.039479654 -0.019160854
000090 28 82 d0 3c ba 5d f0 bb 2c 73 0e bd 5c 0d 9b 3c
       0.025452688 -0.007335392 -0.034777805 0.018927269
0000a0 c1 f2 69 bd 36 b2 2e 3c 0b b0 ca bc 42 ed b9 3c
       -0.057116274 0.010662606 -0.024742147 0.022696141
0000b0 01 da 00 3d a8 ac 56 3d f4 b5 c1 bd f4 78 8a bd
       0.031457905 0.05241075 -0.09458533 -0.06761351
0000c0 d4 b1 0a bd c1 e9 7d bc 51 5d e1 3d f0 a4 0f 3d
       -0.033860996 -0.015497626 0.11004127 0.035069406
0000d0 68 75 b7 bd 25 3d 6b 3d b0 d5 c9 bc b1 f9 e2 3b
       -0.0895794 0.05743136 -0.024638027 0.006926738
0000e0 a6 68 12 3d 75 c4 3a bc a6 16 5f bd a1 23 13 3d
       0.03574433 -0.011399378 -0.05446496 0.03592265
0000f0 94 69 d5 bb a0 37 ad 3d 65 58 8a 3b 28 23 2e bd
       -0.00651283 0.08457875 0.004221963 -0.042513996

bn2.weight f4 [64]
000000 a6 fd 7b 3f 1b 09 81 3f 04 4d 7e 3f a0 2e 80 3f
       0.9843391 1.0080904 0.99336267 1.0014229
000010 07 c3 7f 3f 79 cd 7e 3f 7d 7a 80 3f 8e 11 82 3f
       0.99906963 0.99532276 1.003738 1.0161607
000020 25 27 80 3f b1 a3 7d 3f 6a 57 80 3f 29 e7 7d 3f
       1.0011946 0.990779 1.0026677 0.9918085
000030 f7 3f 7d 3f b8 2a 7f 3f 99 fe 7d 3f 4a 63 80 3f
       0.9892573 0.9967456 0.9921661 1.0030301
000040 89 3f 81 3f a1 04 80 3f 84 5b 7f 3f 95 23 81 3f
       1.0097514 1.0001413 0.99749017 1.0088984
000050 e9 d9 7a 3f 90 c3 80 3f cf ab 80 3f 5a 59 7e 3f
       0.97988755 1.0059681 1.0052432 0.9935509
000060 86 9e 80 3f f0 ea 7a 3f 43 b3 7d 3f 57 a5 7d 3f
       1.0048378 0.98014736 0.99101657 0.99080414
000070 8b 7e 80 3f 3b 87 80 3f b5 52 7c 3f a8 3b 7f 3f
       1.0038618 1.0041269 0.985637 0.99700403
000080 0f 74 7e 3f 6a 0b 80 3f 74 3a 81 3f 97 8e 83 3f
       0.9939584 1.0003483 1.0095963 1.027789
000090 cc 35 7c 3f 26 51 7f 3f 44 8c 80 3f ee 6c 81 3f
       0.9851959 0.997332 1.0042806 1.0111368
0000a0 dd 67 7c 3f 29 ec 80 3f 26 cb 7d 3f 44 5a 7f 3f
       0.9859598 1.007207 0.99138105 0.9974711
0000b0 cb 2c 81 3f 29 30 7f 3f ae a7 7d 3f 04 38 80 3f
       1.0091795 0.9968286 0.99083984 1.0017095
0000c0 e1 7f 80 3f 3f 78 7e 3f 49 95 7f 3f e4 26 81 3f
       1.0039026 0.9940223 0.99837166 1.0089993
0000d0 e3 ad 7a 3f 2b 6c 81 3f b6 cf 82 3f 5a e8 7e 3f
       0.9792158 1.0111135 1.0219638 0.9957329
0000e0 90 97 7e 3f 07 61 80 3f 8d a5 7d 3f 6f e8 81 3f
       0.99450016 1.002961 0.99080735 1.0149058
0000f0 eb f2 7a 3f 53 a0 7e 3f 6d f1 81 3f 9a ca 82 3f
       0.98026913 0.99463385 1.0151802 1.0218079

bn2.bias f4 [64]
000000 98 b7 82 bc 14 b6 68 ba 12 eb 9c 39 05 70 e0 bb
       -0.015956685 -0.00088772294 0.0002992978 -0.0068492913
000010 35 29 c8 bb 50 d4 1a bc 2c df 38 bb 2b da 3c 3c
       -0.006108428 -0.009450033 -0.0028209193 0.011526625
000020 a7 99 68 3b 35 f4 64 bc 28 78 70 39 4a 1a 52 bc
       0.0035491975 -0.013974239 0.00022932945 -0.012823651
000030 77 98 25 bc 99 c8 f4 bc 49 e5 12 bb 3e 12 e4 3b
       -0.010107151 -0.029880809 -0.0022414497 0.0069601825
000040 72 b5 08 b9 56 49 30 bc 08 44 fe ba 4d 9d 97 3c
       -0.00013037564 -0.010759672 -0.0019398937 0.018507624
000050 52 e3 4e 3b 0a 2b 39 3b b4 7b 97 3b 0e f8 fa bb
       0.00315686 0.0028254413 0.004622901 -0.007658965
000060 60 7b a7 bb e8 29 a9 bc d5 87 0e bc 84 88 8c bb
       -0.005111143 -0.020649865 -0.008699377 -0.004288735
000070 6e 09 00 3c 42 6b e9 39 27 d3 c6 bc 92 52 26 3a
       0.007814748 0.00044521136 -0.024270607 0.00063447014
000080 17 23 4e bc a6 a0 c9 bc dd 9d b1 3c 00 f8 93 3c
       -0.012581608 -0.024612736 0.02168172 0.018062592
000090 e1 2c 48 bc b8 14 80 bc 73 5c a9 bb 2d 5a 23 3c
       -0.012217731 -0.01563488 -0.0051684915 0.00997023
0000a0 2b 68 6a 3c 96 f1 89 bc 35 8b 9e bb 49 4c 9b bb
       0.014307062 -0.01683883 -0.004838372 -0.0047393185
0000b0 9c 9e 1a 3a 76 51 33 3b 24 36 ea 3a 7b 1f 95 3c
       0.00058982684 0.0027361787 0.0017868918 0.018203488
0000c0 cf 5d 1c bc c4 ca de bb 02 65 06 3c f2 9d 59 bc
       -0.00954385 -0.006799074 0.008202793 -0.013282286
0000d0 4c ff cb bb a8 93 b1 bc e4 6a 40 3c a3 b7 d6 3b
       -0.006225502 -0.021676853 0.011744235 0.006552653
0000e0 f0 0e 11 37 1a 30 44 3c ed f0 7f bc 77 6d 7d 3b
       8.646151e-06 0.011974359 -0.015621406 0.0038669982
0000f0 54 3d a5 3a 1c da 91 3a 2b 34 6c 3b c0 7c e8 3c
       0.0012606778 0.0011127624 0.0036041837 0.028379798

bn2.running_mean f4 [64]
000000 f8 c7 12 bf ad 51 36 3e 79 e9 72 3d 83 20 81 3e
       -0.5733638 0.17804594 0.059304688 0.25220117
000010 83 b6 4e 3e 45 ec 33 3d af d1 31 bd 87 fe 03 3e
       0.2018681 0.043926496 -0.04341286 0.12890063
000020 ad 79 26 be 97 29 9a 3e cc 91 65 3e c9 49 10 3e
       -0.16257353 0.30109856 0.22418898 0.14090647
000030 ea 2f 4c be 41 10 bf 3e 06 55 46 be cd c2 bb 3e
       -0.19940153 0.37317088 -0.19368371 0.3667206
000040 55 0e 75 bd 82 c1 e4 3d 7e d4 e6 bd fd 1b 19 3e
       -0.05982812 0.11169721 -0.112709984 0.14952083
000050 d0 df da be 08 25 28 3e 01 66 19 3d b2 91 98 be
       -0.4274888 0.16420376 0.037450794 -0.29798657
000060 fe ef 8e 3c 7f 98 65 be d7 60 bc be b3 c2 84 be
       0.017448422 -0.22421454 -0.36792633 -0.25929794
000070 1f 9a 28 be ef fa a6 be bf 46 f1 3e d9 a9 29 be
       -0.16465043 -0.32613322 0.47124287 -0.16568698
000080 2c f2 d8 bd a4 60 b6 3e f1 a3 2f 3e 50 3d 11 3e
       -0.105930656 0.35620606 0.17152382 0.14183545
000090 74 18 bf 3e 8e 62 b3 be 8d 13 53 bd fe b0 b9 be
       0.37323344 -0.3503613 -0.051532317 -0.36267847
0000a0 0d 44 ad bd 2a 4c 09 3e d2 b2 fb bd 68 f5 0f 3e
       -0.08460245 0.1340796 -0.12289967 0.14058459
0000b0 18 5a 4d 3e 77 ca a5 bd 4e 0f 71 be 7a 2f 77 bc
       0.200539 -0.08095258 -0.23540995 -0.015087003
0000c0 e8 a7 80 3e b2 05 81 3e ec e3 8b 3e 12 e2 08 3e
       0.25128102 0.25199658 0.27322328 0.13367489
0000d0 df ac c0 3d 5e 4f c8 3e d8 4b d7 3d 58 a0 ba bd
       0.094079725 0.39123052 0.10512513 -0.091126144
0000e0 72 03 02 3e 90 98 51 b9 0e 6d 3b 3e fc b4 db 3d
       0.12696627 -0.00019988627 0.1830332 0.107278794
0000f0 05 79 c5 be c8 79 8a be 75 84 c5 bd 3c 3e 00 bd
       -0.38568893 -0.27046037 -0.09644405 -0.03130935

bn2.running_var f4 [64]
000000 ec 9c 88 3f c4 28 90 3e 65 7b a8 3e 72 cc c2 3e
       1.0672889 0.28156102 0.32906643 0.38046604
000010 a2 ad 0b 3f 02 88 d9 3e 75 ac e4 3e f6 7f a7 3e
       0.5456182 0.42486578 0.44662824 0.32714814
000020 6e 97 a7 3e 18 d7 39 3f 24 27 0d 3f 2e d5 c9 3e
       0.3273272 0.7259383 0.5513785 0.39420456
000030 24 b9 f7 3e 82 06 22 3f 15 49 be 3e 91 5a 02 3f
       0.4838344 0.6329118 0.37165132 0.50919443
000040 fb ca 8e 3e 6d 23 f0 3e d5 34 89 3e 6d 27 9d 3e
       0.27889237 0.46902028 0.2679812 0.30694142
000050 c6 f3 37 3f b6 64 00 3f eb 7c 99 3e 40 f4 ba 3e
       0.71856344 0.5015367 0.29978117 0.36514473
000060 b2 64 69 3e 3d e0 47 3f 90 69 2e 3f f4 e3 03 3f
       0.22792318 0.78076535 0.68129826 0.51519704
000070 eb 6d a1 3e 77 03 04 3f f4 45 87 3f b8 9c 17 3f
       0.31529173 0.51567787 1.0568223 0.5922351
000080 c3 96 d4 3e 04 12 f9 3e 92 a8 c3 3e f9 4d a9 3e
       0.41521272 0.48646557 0.38214546 0.330673
000090 70 2c 2d 3f d1 ac 0e 3f b1 72 85 3e b4 8c 49 3f
       0.6764593 0.55732447 0.26064065 0.7873032
0000a0 42 c6 cf 3e 7a 29 ce 3e 53 f3 90 3e 89 a0 aa 3e
       0.40580946 0.4026602 0.28310642 0.33325604
0000b0 c5 7c e1 3e 23 99 d4 3e 70 21 df 3e c1 26 94 3e
       0.44040504 0.41523084 0.43580198 0.28935817
0000c0 b6 7e 07 3f 95 a1 2b 3f 04 3e b5 3e d2 d2 f0 3e
       0.5292772 0.6704343 0.35398877 0.47035843
0000d0 45 3d e6 3e 76 d8 20 3f 0a 7f 9a 3e 1f 4c c8 3e
       0.4496862 0.62830293 0.30175048 0.39120576
0000e0 b4 f7 e6 3e 6e b0 b1 3e 41 9f 06 3f 1a fe 88 3e
       0.45110857 0.34704918 0.5258675 0.26756364
0000f0 9f bc 46 3f 7f e7 1f 3f 9b 18 97 3e 78 cd 96 3e
       0.7763156 0.6246261 0.2951096 0.29453635

bilstm.weight_ih_l0 f4 [256, 64]
000000 ad 85 97 bd 98 06 33 bd b2 14 da 3c c2 44 2d bc
       -0.073985435 -0.04370746 0.026621196 -0.010575475
000010 06 c6 86 3c a4 d5 e4 3d a4 d5 a4 3d 6b 10 ff bd
       0.016451847 0.11173561 0.08048561 -0.12454303
000020 90 99 b0 3c e3 dc cf 3d 86 7e 98 3d 2a 0f 01 be
       0.0215576 0.10149553 0.074460074 -0.12603441
000030 04 1b b6 bc a8 d3 e1 bd 58 0a d2 bd ea 5d b8 3d
       -0.022229679 -0.11026698 -0.10255879 0.09002288
000040 21 66 33 3d b2 16 9b 3c ea 4d d6 3d 78 f6 a6 3d
       0.04379857 0.01893172 0.1046408 0.08152479
000050 d7 f5 b0 bd f4 7d d4 3a f7 d2 5d bd 86 f3 d4 3d
       -0.0864064 0.0016211853 -0.05415627 0.10398011
000060 d6 56 08 3a 4b 5e f4 bd 4e f5 9d bd 39 b4 b7 bd
       0.0005200928 -0.119320475 -0.07712804 -0.089699216
000070 11 c3 4c 3d ba b9 9e bd 96 98 de bd 74 df 94 bd
       0.049990717 -0.07750268 -0.10868947 -0.07269183
000080 96 7d 2c 3d 02 da 51 bd c0 76 54 3d 31 d2 0f bd
       0.042111956 -0.0512333 0.05187106 -0.035112564
000090 e8 a2 ab 3c 36 dd a9 3d 64 0e 88 3d 89 76 dd 3d
       0.020951703 0.08294146 0.0664337 0.108136244
0000a0 24 1c d2 3d cc ad cf bd 01 23 05 3a 39 ef 8c bd
       0.10259274 -0.10140571 0.00050787634 -0.068815656
0000b0 83 73 a1 3d 68 a2 8e bd ed c1 86 3d e3 01 bc bd
       0.0788336 -0.0696457 0.06579957 -0.09180047
0000c0 9b 47 be 3c e1 dc 0f be dc 03 07 be 42 74 c8 bd
       0.023227504 -0.14049102 -0.13185066 -0.097877994
0000d0 7d e3 e7 bd 23 86 00 3e 82 13 a5 bd 2c 3c 1a bd
       -0.11322687 0.12551169 -0.080603614 -0.03765504
0000e0 96 ba e4 3d c7 e2 9d 3d 2e 03 df bd d8 e2 a5 3d
       0.11168401 0.0770927 -0.10889278 0.08099908
0000f0 43 f3 a6 3d fb 96 f1 bd 1a 93 20 3d f7 e6 91 3c
       0.08151867 -0.11796375 0.039202787 0.017810328
000100 1b 6c 95 3d 03 33 a6 bd f0 1c e6 3d 9c 98 9b bd
       0.0729601 -0.081151985 0.11235988 -0.07597467
000110 a7 4e b8 bc d4 22 da 3d 84 b2 be bd 92 fb 8c 3d
       -0.022498442 0.10651174 -0.09311393 0.06883921
000120 da ef 25 bd 68 d3 80 3b c2 ff d8 3d d3 8c 17 3d
       -0.040511943 0.0039314516 0.10595657 0.036999535
000130 7d f0 04 be e7 92 e5 bd 84 aa af bc 2b 23 67 3d
       -0.12982364 -0.1120966 -0.021443613 0.056430023
000140 5a 84 92 3d e4 cf 7b bd 89 80 4c bd de 1b 01 be
       0.0715415 -0.061477557 -0.04992727 -0.12608287
000150 e0 19 88 bc fd ad 2d bd ad a6 95 3d 8f fe c2 3a
       -0.0166139 -0.042402256 0.073071815 0.001487689
000160 a8 6e b7 bd d5 f7 00 3e 42 3e af 3c df 56 2b 3d
       -0.08956653 0.1259454 0.021391992 0.041830894
000170 d5 71 07 bd 4f 8e 97 3d be 94 04 bd 50 19 b7 3d
       -0.033067543 0.0740019 -0.032368414 0.08940375
000180 a0 f1 df bd 9f 03 f9 bd 65 0a 85 bd 40 98 1d bc
       -0.10934758 -0.12158894 -0.06496123 -0.009618819
000190 2e 74 ec bd 02 30 05 3d 1a 36 87 bd 95 bd d1 bc
       -0.11545597 0.032516487 -0.06602116 -0.025603095
0001a0 44 d0 4e bd 50 57 d3 bb 1c eb a3 bd 6b 44 07 be
       -0.050491586 -0.0064496174 -0.08003828 -0.13209693
0001b0 11 0e 1d bc 61 b7 97 bc 4b 55 dd 3d 8f 25 eb 3d
       -0.009585873 -0.018520059 0.10807284 0.11481773
0001c0 08 2d b3 bd b4 4e 85 3d 59 85 27 bd 20 fa 9a 3d
       -0.087488234 0.06509152 -0.040898655 0.07567239
0001d0 bb 59 27 3d 37 dd b9 bd 3f c0 ca 3d f4 ef bc bd
       0.040857058 -0.090753965 0.09899949 -0.09225455
0001e0 3b 0e 37 bc 88 80 c7 bd 83 75 82 bd 85 4f 7b 3b
       -0.011172826 -0.09741312 -0.0637007 0.0038346958
0001f0 5c 55 f5 bd cd bf 10 bc e7 3a 81 3d c3 c0 2b bd
       -0.11979172 -0.008834791 0.06310063 -0.04193188
000200 df 3f 53 3c e7 3f 96 bd b4 b1 d8 3d 71 f9 08 bd
       0.012893646 -0.07336407 0.10580769 -0.03344101
000210 ac 67 d3 bd ee c5 8e 3c 07 6a c9 bc bd 30 ae bc
       -0.10322508 0.017428365 -0.02458669 -0.021263475
000220 37 d8 c4 3d 6a 01 cf bd 50 f6 f6 3d 22 bf f4 bd
       0.09611552 -0.101076916 0.12058699 -0.11950518
000230 47 2e de bd 5a 1d 14 bd 48 51 c9 bd 74 50 00 be
       -0.108486705 -0.036160804 -0.09829956 -0.1253069
000240 67 5f 3b bc 71 62 d1 bc fa 79 82 3d fc 7c 9c 3d
       -0.01143632 -0.025559636 0.063709214 0.076410264
000250 23 f1 81 bc 6d ba da bd 31 5a cf 3d 65 bf bf 3b
       -0.015862053 -0.10680089 0.101246245 0.0058516734
000260 68 ce 1a bc d1 f0 a4 bd b9 8f ae bd 43 97 a7 3d
       -0.009448625 -0.080537446 -0.08523507 0.08183148
000270 6d 61 78 3d 83 57 e1 bd f8 64 0c 3d d4 3b d8 3d
       0.060639787 -0.1100302 0.03427598 0.10558286
000280 5c 97 12 bc da 48 9e 3d d6 b4 4b 3d 44 5c 94 3b
       -0.00894722 0.07728739 0.049733005 0.0045276005
000290 90 c8 5c 3d 39 0a d9 bd 5e c4 2c 3d 73 9d ab 3d
       0.05390221 -0.10597653 0.042179458 0.083796404
0002a0 03 05 f3 bd fe e7 af bc 1f 0a ed 3d d1 03 df bd
       -0.1186619 -0.021472927 0.11574196 -0.108894
0002b0 15 5f ab 3d e2 17 49 bd 72 23 cb 3d 98 eb 91 bc
       0.08367745 -0.049095042 0.0991887 -0.017812535
0002c0 7f dc 3d 3d 53 4b 9e 3d 12 53 7b bd 69 a2 f4 3d
       0.04635286 0.07729211 -0.06135852 0.1194504
0002d0 4a 1e 47 3d b6 93 ca bd 2e 49 d2 bd 06 72 d5 bd
       0.04861287 -0.09891455 -0.10267864 -0.10422139
0002e0 75 34 c3 3d b4 e2 08 bd cf 2b 78 3c 19 86 97 3d
       0.0953149 -0.033419326 0.0151471635 0.07398624
0002f0 08 62 92 3d e3 dc aa bd a1 04 46 bd f7 00 01 3d
       0.07147604 -0.08342912 -0.04834426 0.03149506
000300 e9 81 05 bd 16 5e fb 3d dd 90 5f bd e4 ee 0e 3d
       -0.032594595 0.12273805 -0.05458151 0.034895793
000310 16 f4 a2 bd 69 49 43 3d e4 7a c4 3c b5 18 4e 3d
       -0.07956712 0.04767743 0.02398438 0.05031653
000320 08 a9 ec 3d 51 41 86 3c da f9 dc 3d dd 16 ab bc
       0.11555678 0.016388567 0.10789843 -0.020884925
000330 a9 26 02 bd 11 67 f5 bd 94 45 b4 3d 36 3d b1 3d
       -0.03177515 -0.11982549 0.088023335 0.08654253
000340 ca 7b 53 3d bd ce 8d bd a2 3c e0 bd 74 32 84 bd
       0.051631726 -0.06924198 -0.10949065 -0.06454936
000350 5f 8b 69 bd f6 85 c7 3c 3a 90 df 3d 5e 74 c8 bd
       -0.05701768 0.02435587 0.10916181 -0.0978782
000360 d5 07 ae 3d 5a 29 9b 3d 50 04 99 3d 8a 88 f4 3d
       0.084975876 0.075762466 0.07471526 0.11940105
000370 87 97 c5 39 3d c9 8a 3d 5e 13 34 bd ad 37 31 3d
       0.00037687665 0.067766644 -0.043963782 0.043265987
000380 e8 f5 7c 3d a1 59 6f 3d 63 b2 84 bd 56 1b 69 3d
       0.061757952 0.058435086 -0.06479337 0.056910835
000390 80 ed c3 3c f8 0a c0 bd a4 8c 72 3b 1c a4 2d 3d
       0.02391696 -0.09377092 0.0037010098 0.042392835
0003a0 b5 02 01 3e 25 0b fb bd d0 f3 c9 bd 86 24 40 bd
       0.12598689 -0.12257985 -0.09860957 -0.04690983
0003b0 0c 58 d7 3c 4b bc f8 3d f2 d7 66 bb 4d 5d 31 3c
       0.026287101 0.12145289 -0.0035223928 0.010825467
0003c0 ae 63 03 3e b9 ea ee 3c 93 27 16 bc ad 3d ba 3d
       0.12830994 0.029164659 -0.009164709 0.09093795
0003d0 4e e7 b0 bd 7e 54 51 bd 3c 74 c6 3b 35 98 f6 bc
       -0.08637868 -0.05110597 0.0060563367 -0.030101875
0003e0 75 1f f7 3c f1 a8 05 bd c7 b5 74 3d 65 76 c0 3d
       0.030166367 -0.03263182 0.05974367 0.09397582
0003f0 7f fc 41 bd 55 ce 1c bd 76 1e 03 3e 75 b1 79 3d
       -0.04735994 -0.03828271 0.12804589 0.06096025

bilstm.weight_hh_l0 f4 [256, 64]
000000 20 cd cb bd 3f 80 00 bb df 4a 28 bd 39 a8 32 bc
       -0.09951234 -0.001960769 -0.041087028 -0.010904365
000010 45 16 6a 3d 0f ee 4c 3d 08 58 3f bd 90 95 c2 3d
       0.057150144 0.050031718 -0.046714813 0.09501183
000020 c4 b0 20 bd f1 70 e5 3b 3e 76 d6 3c ec 31 c2 bd
       -0.039231077 0.007001989 0.02617943 -0.09482178
000030 74 ad a2 3d 30 0d 4d bc 18 0d fd 3d 8f f3 fc 3c
       0.0794324 -0.012515351 0.12356013 0.030877857
000040 06 09 72 3d 1b 43 bd 3c f3 f0 96 bd 37 a9 d9 3c
       0.059090637 0.023103287 -0.07370176 0.026569946
000050 54 6b d3 3d aa c8 2f bd 9f e0 2b 3d 7d 3d a7 3d
       0.103232056 -0.042915978 0.041962262 0.08166025
000060 70 ba fd 3b 56 de a6 bd 37 26 87 3d 34 40 bb bd
       0.0077431723 -0.08147876 0.06599086 -0.09143105
000070 3b cb 9d bd 96 dd 4e 3c e4 cc 99 3d 07 9e 55 3d
       -0.07704779 0.012626072 0.07509783 0.05215266
000080 a2 6c d1 3d 9c 57 b5 3a a4 b0 ce 3d 2d 5b 5f bd
       0.10225798 0.0013835314 0.10092285 -0.05453031
000090 23 5d 9b 3d e2 81 e6 3d 57 29 d1 3d 55 aa 39 3d
       0.07586124 0.11255242 0.10212963 0.045328457
0000a0 45 b5 08 3d 51 80 66 bd 1a 0e 1e 3d 67 68 95 bc
       0.033375997 -0.056274716 0.038587667 -0.01823826
0000b0 91 95 0e bd 64 e0 4a 3c 10 73 44 bd c5 fd 0a be
       -0.034810606 0.0123826 -0.047961295 -0.13573368
0000c0 62 a7 6e bd e7 b8 a1 bd 0c e0 56 bc 3f 62 f0 3d
       -0.058265097 -0.078965954 -0.01311494 0.11737489
0000d0 78 a8 a4 3d 1b 6d 17 3d 68 ae d7 3d 96 a3 8b bd
       0.08039945 0.036969285 0.10531312 -0.06818311
0000e0 f3 f1 00 3d 16 60 1c bd 15 6c 99 3d a3 4a 48 bc
       0.03148074 -0.038177572 0.07491318 -0.012224826
0000f0 e9 b0 c0 bd 9d 81 85 3d 5c 26 8c 3d 2f ab f1 3d
       -0.09408743 0.065188624 0.06843254 0.11800229
000100 00 33 f9 3d 9a ba d7 bd 74 f1 8a 3c 5d cb 8c 3d
       0.121679306 -0.10533638 0.016960837 0.06874726
000110 2f c4 c9 bc 20 99 dc 3b e9 de 89 3d 6b 7b d2 bc
       -0.02462968 0.006732121 0.0673197 -0.025693616
000120 f5 4f bb bd 0d 1f 3a 3d 65 c4 86 3b 89 3a 77 bd
       -0.0914611 0.04543977 0.0041127675 -0.060358558
000130 57 33 49 bd ac 8d 94 3d d4 67 92 bc d9 a5 e4 bd
       -0.049121227 0.07253584 -0.017871775 -0.111644454
000140 f5 9e 9d bd 6d 41 ed bc 50 b2 71 bd e5 20 80 3d
       -0.07696334 -0.028961862 -0.059007943 0.06256274
000150 72 11 34 bd b4 4e 60 bd 38 60 14 3d 29 03 8b 3c
       -0.04396195 -0.054762557 0.036224574 0.01696928
000160 d8 aa a9 ba e8 83 68 bd 65 5a 1b 3d 14 d6 bb 3c
       -0.0012944592 -0.05676642 0.037928004 0.022929229
000170 01 8a 87 3d 4c 4d 37 ba 6a 50 41 bc a5 98 d5 bd
       0.06618119 -0.0006992414 -0.011798957 -0.10429505
000180 bf 3d ff 3d d9 42 c9 3d 32 8f 8e 3d 0a fe 72 bd
       0.12462949 0.09827203 0.06960906 -0.0593243
000190 f9 ea e5 3d 5f 9d e4 bd 31 73 ab bc dd 34 70 3d
       0.11226458 -0.11162829 -0.020928951 0.058644164
0001a0 24 93 65 bd 5a c5 b7 3d 0a 67 e3 3d a6 c3 55 bd
       -0.056048527 0.08973189 0.111036375 -0.052188538
0001b0 bb 32 01 3a 93 6c d1 bc cf c2 06 bd 67 65 b8 bd
       0.0004928519 -0.025564468 -0.032900628 -0.09003716
0001c0 01 2e e4 bd c8 34 8b 3c af c5 cf 3d e2 8c 4d bd
       -0.11141587 0.016992941 0.10145127 -0.050183184
0001d0 8c e2 95 bd f4 29 15 3d 37 89 fe 3b c8 6a 04 be
       -0.07318601 0.036416963 0.007767822 -0.12931359
0001e0 11 9e 15 bd 5a 96 39 bd e5 59 df 3d c5 95 af bc
       -0.036527697 -0.045309402 0.10905818 -0.02143372
0001f0 89 5b 8c 3d de dc 7d bd 07 32 ff 3d 43 7f da 3d
       0.068533964 -0.061978213 0.12460714 0.106688045
000200 5f 5c 18 bd 1a 58 57 3c df cf c3 3a 5a cd 59 bb
       -0.037197467 0.013143564 0.001493927 -0.0033233971
000210 34 b1 77 bd 25 52 2c bd 3c a2 2d 3d 82 5d 5e bd
       -0.06047173 -0.042070527 0.042391047 -0.054288395
000220 77 c6 14 bc 80 a9 e3 3d c3 f1 07 bd 05 d9 80 3d
       -0.009080521 0.11116314 -0.033189546 0.06291393
000230 85 5e 01 3d 2e 41 ee 3c 3a 0f d5 3d 0c 04 20 3d
       0.03158428 0.029083814 0.10403295 0.03906636
000240 88 e9 0d bd d1 0e de bd 3f 98 a8 bd ee a8 9f bd
       -0.03464654 -0.1084267 -0.08232164 -0.07795893
000250 cf 25 98 3d f5 18 3c 3d 7c 82 4e 3d 07 01 d9 3d
       0.074290864 0.04592224 0.05041741 0.10595899
000260 82 30 f5 3d 01 85 f0 bc b9 94 ec bd 2c fc fa 3d
       0.11972143 -0.029360296 -0.11551804 0.12255129
000270 d9 19 ed bd 3c 25 f4 bd 45 4e 6f bd d9 d2 a6 3d
       -0.11577196 -0.119211644 -0.058424253 0.08145685
000280 39 02 14 3b ad 40 03 3e 6a ea f1 bb 9c d2 d7 bd
       0.0022584333 0.1281764 -0.0073826807 -0.105382174
000290 e8 17 ba 3d 17 dc 16 3d c8 cb b6 bd 30 6e 7a bd
       0.09086591 0.036830988 -0.08925587 -0.06114024
0002a0 73 97 bb bc 22 33 cd 3d 88 c3 ac 3d f8 75 f7 bd
       -0.022899365 0.100195184 0.08435732 -0.12083048
0002b0 19 ea cc bd b1 28 70 bd 02 24 8a 3c d6 91 50 3c
       -0.10005588 -0.058632556 0.016862873 0.0127300825
0002c0 c3 bf df bb 72 20 ba 3d dd 1a 7f bc b0 ef 14 3d
       -0.0068282797 0.0908822 -0.01557037 0.036361396
0002d0 62 3a b4 bd c8 e2 a1 3d 40 7f 2e bc ef 3e ca 3d
       -0.08800198 0.07904583 -0.010650456 0.09875285
0002e0 ab a7 dd 3c 46 f0 fc bd d1 50 07 3e de 35 35 bc
       0.02705749 -0.12350516 0.13214423 -0.011060206
0002f0 fc 60 c1 3c 1d f4 00 3e c0 ad a7 3d 18 43 d0 bd
       0.023605816 0.12593122 0.08187437 -0.10169047
000300 f3 6b 56 3d 5b d9 14 bd 33 a5 f5 bd bf 1c e0 3d
       0.052349042 -0.0363401 -0.119944 0.10942983
000310 3f 9b ac 3d 4e 82 c3 bd 5d fb af bd 50 21 e5 bd
       0.08428048 -0.09546338 -0.085928656 -0.111879945
000320 55 b1 34 bc 46 69 04 3e 15 61 1d 3d 01 c2 fe bd
       -0.011028607 0.12930784 0.038422663 -0.12439347
000330 da 22 10 bb be 3c 65 bc d4 a3 b3 3d 62 b0 60 bd
       -0.002199343 -0.013991533 0.08771482 -0.05485571
000340 58 e0 9f 3d 3f 57 b6 3d 8e fa 9e bd 57 f3 60 bd
       0.07806462 0.089033596 -0.07762633 -0.054919567
000350 79 16 ae 3d 1b f0 98 3d 0b c0 32 bd fe 3f af 3c
       0.0850038 0.074676715 -0.043640178 0.021392819
000360 9e 3e cd bd 49 f9 fb 3c 51 31 9e 3d 56 9c 47 3c
       -0.10021709 0.030758517 0.0772425 0.0121832695
000370 20 02 b4 bd 27 89 e7 3b 09 59 9a 3d f1 a8 81 3d
       -0.08789468 0.0070659104 0.07536513 0.06331051
000380 1b 81 56 3d 19 e6 bd 3d 23 1c a1 bc 19 de 3b bc
       0.05236922 0.09272403 -0.019666737 -0.011466526
000390 a2 70 a0 3c 1e d4 bc 3d 8b 59 cf bd fd 4d 42 3d
       0.019584958 0.09220146 -0.10124501 0.047437657
0003a0 1d c9 5f bd 7a f1 82 3d bf ee 8d 3c 29 5a ec 3d
       -0.054635156 0.06393714 0.017325757 0.11540634
0003b0 41 a3 21 bd 48 e7 e2 3d ae bd 80 3d d3 2e e1 3d
       -0.03946233 0.1107927 0.062861785 0.10995259
0003c0 16 fa f5 bc 1b 4f 0d bd 49 a4 01 3e 86 ba e9 bd
       -0.030026477 -0.03449927 0.12660326 -0.1141253
0003d0 1e 59 2b bd ba 93 e1 bd 19 3a 8b bd 9d 4b 31 bd
       -0.041833036 -0.11014505 -0.067981906 -0.043285
0003e0 4e cb 3f 3d d6 c4 bc bd b1 51 e6 bd 9b 82 b6 bc
       0.046824746 -0.09217231 -0.1124605 -0.022279074
0003f0 51 10 8e 3d d6 2a 49 bd 93 63 bb bd b4 af 19 3d
       0.06936706 -0.049113117 -0.09149852 0.03752108

bilstm.bias_ih_l0 f4 [256]
000000 90 48 a5 bd 38 a1 a6 bd f2 a6 f1 bd 27 6d a7 3c
       -0.08070481 -0.08136219 -0.117994204 0.02043779
000010 90 9b 81 bd 50 f6 a8 3d c7 35 93 bc 23 bc 01 be
       -0.06328499 0.082501054 -0.017969979 -0.12669425
000020 24 1f e0 bc ab c1 92 bb bc cc be 3c 02 3d 09 bd
       -0.027358599 -0.0044786534 0.023290984 -0.033505447
000030 f1 d1 a0 bb 5c cd c1 3d fb 9a 5b 3c 83 29 aa 3d
       -0.0049078395 0.09462997 0.013403649 0.08308699
000040 c9 27 bd bc e4 9b 0a 3e cb 72 fa bc 12 ea 77 bd
       -0.02309026 0.1353603 -0.030572316 -0.06052596
000050 3e 4e a7 3d ac 26 66 3d 03 d1 89 bc 97 ba 37 bc
       0.081692204 0.056189224 -0.016823297 -0.01121392
000060 c0 1b bb 3d d6 56 a4 3a 11 da 58 3d 75 8e 1a 3d
       0.09136152 0.0012538086 0.05294234 0.037733514
000070 e4 64 e7 3c 87 81 5f 3d e7 80 c5 3d 2b 19 72 3d
       0.02824635 0.054566886 0.09643727 0.059106033
000080 95 e3 3d 3c 98 ba 87 3d 28 9d 07 bc ac ab 17 3d
       0.011589904 0.06627387 -0.008277215 0.037028953
000090 2d d4 32 bd f0 2c 52 3c 63 92 f1 bd 26 7e f8 bd
       -0.043659378 0.012828097 -0.11795499 -0.12133436
0000a0 22 98 80 3d d9 e5 97 3d c7 8c 8f 3d 72 06 d8 bd
       0.06279017 0.07416887 0.07009273 -0.10548104
0000b0 40 0d e6 bd 85 ae 27 bd 60 32 d8 3d 30 13 36 bd
       -0.11232996 -0.04093792 0.10556483 -0.044451892
0000c0 a3 3f 84 3d 8e ee b8 bd 51 d4 5a 3d eb 63 e5 3d
       0.0645745 -0.09029876 0.053425137 0.112006985
0000d0 08 51 88 3d 8e 9b 7b 3d d5 f7 9a 3d ef a5 bc 3d
       0.066560805 0.061427645 0.075668015 0.09211337
0000e0 9a c7 ec 3d da 5b 8e 3d 52 df d9 3d 0d 92 9a 3d
       0.115615085 0.06951113 0.10638298 0.07547388
0000f0 12 77 96 3d 07 96 06 3c e3 8a 6b bd d5 0a e1 bd
       0.073469296 0.00821448 -0.0575055 -0.10988394
000100 c3 91 8c 3c 8d 08 1c bd a4 cf 01 bd 50 af b3 bd
       0.017159348 -0.038094092 -0.031692162 -0.087736726
000110 6b b2 93 3d e2 18 fe bd 8d b4 0c bd 16 90 c3 3b
       0.07211765 -0.1240709 -0.034351874 0.005968104
000120 d3 54 87 3d 9b df 9c bd a4 d0 c7 bd ea 6f 8c bd
       0.06607976 -0.07659837 -0.09756592 -0.068572834
000130 a0 e9 2f 3d 64 d1 49 3d f5 9b 60 3d 17 e1 9d 3d
       0.04294741 0.049271956 0.054836232 0.07708948
000140 ed 25 9c bd b6 6f 34 3d 00 68 8e bc 3a 85 2d 3d
       -0.07624421 0.04405185 -0.017383575 0.042363383
000150 da 2f 39 3d 59 b1 d3 bd e4 f5 e9 bc 32 56 bf 3d
       0.04521165 -0.10336561 -0.028559633 0.09342612
000160 52 c2 60 3d 1e 7a 3d bd 95 99 82 bd 79 8c 92 3d
       0.05487282 -0.04625904 -0.0637695 0.07155699
000170 47 b6 d8 3c c4 d2 ac bc 7b dc c3 bd b2 a9 f0 3d
       0.026454104 -0.021096595 -0.09563538 0.11751117
000180 c6 0d bc 3d d4 40 a3 bd f5 c2 b9 bd f1 36 04 be
       0.091823146 -0.07971349 -0.09070388 -0.12911583
000190 c2 23 72 bd 05 1c 3c 3d 73 84 ec bc 8c 21 0d bd
       -0.059116133 0.04592516 -0.02887175 -0.03445582
0001a0 0c ac 8a 3d 1b e1 41 bd 40 41 ea bd de 6c 29 bd
       0.067710966 -0.047333818 -0.11438227 -0.04136359
0001b0 75 3d 6f 3c e7 9e 4c bd 58 f3 83 bd bb f9 e7 3d
       0.014602055 -0.04995623 -0.064428985 0.11326929
0001c0 1b d5 c5 3b fd 14 fb bc 44 8b db bb b3 06 c2 bc
       0.006037367 -0.030649656 -0.0066999514 -0.023684835
0001d0 24 42 21 bd 8e 18 9e 3d 3c db 57 3c 7e 7e 20 bc
       -0.039369717 0.07719527 0.013174828 -0.009795783
0001e0 28 0b d8 bd b6 27 37 3d d1 17 d3 bd fc 0a 67 3d
       -0.10549003 0.044715606 -0.10307277 0.05640696
0001f0 d3 08 9d 3d 8d 98 72 3d 59 cf 6d bd 2d eb a4 bd
       0.07667699 0.059227515 -0.05805907 -0.08052669
000200 de 19 ba bd 15 f9 2d bd 6b c5 da bd e8 20 81 3d
       -0.09086965 -0.04247387 -0.10682186 0.063051045
000210 37 b8 0d bb 2b f2 65 3c 6f 9c b9 3d c7 e9 8a 3d
       -0.0021624693 0.014034788 0.090630405 0.06782871
000220 c0 26 cb bc 4c ea 0e 3d 76 16 da bb 83 3b 6a 39
       -0.02479875 0.03489141 -0.0066555096 0.00022338149
000230 c5 e2 11 bd a8 c2 fd 3c dc 54 c4 3d 49 9e 84 3d
       -0.035616655 0.030976608 0.09586498 0.06475503
000240 f4 06 61 bb ba 91 06 bd 09 3e 63 bd 88 92 2c 3d
       -0.003433642 -0.03285382 -0.055479083 0.04213193
000250 6e 99 a7 bc e0 0b 79 bd 18 54 c0 3d 0c 8f e1 bd
       -0.020458903 -0.06080234 0.093910396 -0.11013612
000260 14 d4 c8 3d 22 0d e5 bd 01 40 de bd 6a ab a3 bd
       0.09806076 -0.111841455 -0.108520515 -0.07991679
000270 45 67 8c 3d a4 37 e0 3b 22 de e4 bd 34 12 aa 3d
       0.068556346 0.0068425704 -0.11175181 0.08304253
000280 36 f2 6f 3d 64 e9 3b bd be 9c 45 bd 7e ba f0 3d
       0.0585806 -0.045876876 -0.048245184 0.117543206
000290 d0 ed b1 3d 4d cf d1 bd 10 8f 44 3d f5 3f e2 bd
       0.08687937 -0.102446176 0.047987998 -0.11047355
0002a0 50 d5 9a bd 78 4d b0 bd 8b e0 95 bd 8e 62 a1 3d
       -0.075602174 -0.08608526 -0.07318219 0.07880126
0002b0 77 36 8e bc 02 d0 73 3d 6f 71 4e bd 0b f2 c4 3d
       -0.017359955 0.059524544 -0.050401147 0.096164785
0002c0 40 9b b5 3d 38 81 e3 bd 4c 68 16 bd 0f d7 b5 bd
       0.08867502 -0.11108631 -0.03672056 -0.0887891
0002d0 a7 3f 1a bd 99 09 b6 bc aa 76 99 bb 5d c8 45 3d
       -0.03765836 -0.022221373 -0.0046833353 0.048286784
0002e0 4b 28 62 3d 7d 9c 58 3c 88 03 61 3c 5c 16 9a 3c
       0.055214208 0.013220903 0.013733752 0.01880949
0002f0 b7 bc c1 3d 98 14 a6 3d 98 af 49 3c 20 dd 5a bd
       0.094598226 0.08109397 0.012309931 -0.053433537
000300 a8 9a 99 3d ff f2 63 3d ce 32 ab bd bc 5d 31 3d
       0.075002015 0.05565166 -0.083592996 0.043302283
000310 08 13 ef 3c cd c6 c5 ba 4f 8c fc 3d 95 31 48 bd
       0.02918388 -0.0015089154 0.12331449 -0.04887541
000320 35 9c 8b bd bb dc ed bb 21 31 d8 bd be d7 83 3d
       -0.068169035 -0.007258979 -0.105562456 0.06437634
000330 27 ce 36 bd cf a7 cc 3d dc 67 2a bd 4d 4f 39 3d
       -0.044630196 0.099929444 -0.041602954 0.045241643
000340 68 46 f7 bb dc d9 5a bd 86 15 8a bd e4 59 29 bd
       -0.007546235 -0.053430423 -0.067423865 -0.041345492
000350 fe c3 ea 3d 61 09 7d bd 45 fc 92 3d a5 08 bb bd
       0.11463164 -0.061776523 0.07177023 -0.09132508
000360 7f 19 c2 3d 82 24 d4 bd 37 79 71 3d 1e f5 db 3d
       0.09477519 -0.10358526 0.05895349 0.10740112
000370 56 2e b0 3d b3 cc c2 3c 3b 8a 86 bd 35 df 4b bd
       0.08602588 0.023779249 -0.06569334 -0.049773414
000380 38 bb 67 3b 1b 2e 3a bb 04 ee 11 bc 1e a3 82 3d
       0.0035359394 -0.0028408829 -0.008906845 0.063787684
000390 23 07 f0 bc b8 7d e8 3d 86 e4 79 bd fa 6e de 3c
       -0.029300278 0.11352104 -0.061008953 0.027152527
0003a0 2f 8b 04 bd 42 6b d1 3d 7f 7e 00 3d 6f ef 22 3d
       -0.0323593 0.10225536 0.031370636 0.039779123
0003b0 47 75 6c 3d 9b 31 29 bd 5a e0 8d bd a0 9e 8c bd
       0.057729032 -0.041307073 -0.06927557 -0.06866193
0003c0 16 d3 e2 3d 74 ee 49 bd 11 69 a4 3d 70 80 cd 3d
       0.11075418 -0.049299672 0.08027852 0.10034263
0003d0 1c 14 91 3a 02 8c 28 3c 4c d7 93 bd 08 ad 51 3c
       0.0011068615 0.010287287 -0.07218799 0.0127976015
0003e0 50 73 b4 3d 04 94 a3 3c 9c 3e 4a 3d a1 fd 61 3d
       0.088110566 0.01996804 0.049376115 0.05517352
0003f0 31 3c 71 bd c1 ac d9 bd f7 71 c8 3d f3 cf 1d 3b
       -0.058895294 -0.10628653 0.09787362 0.0024080246
